cours/TP/tp2/checkpoints/best_dungeon_model.pt (torch, 154797 bytes, 31 tensors)

weight f4 [45, 8]
0.0 0.0 0.0 0.0 0.0 0.0 0.0 0.0
-0.005133537 0.018037459 0.0019971093 0.0017977367 -0.0093539385 -0.0110748 0.011056811 -0.0012213723
-1.3124902 1.8393993 -1.1951563 0.9592717 -0.008442037 -0.6579521 -0.4944473 -1.7457657
-1.437945 0.16695578 -0.146484 1.1395966 -0.32798177 1.4758061 -0.9054918 0.1386845
-0.50749785 0.5015563 -0.31682315 -0.27072436 0.192041 -0.7310714 1.4348963 1.2584642
-0.91462857 2.240723 -1.0266978 0.14311866 -0.9585409 1.1586728 -0.52663016 0.96711564
-0.8787954 -0.645297 -1.0045506 0.81366307 0.15193652 -0.7057574 -0.56400794 0.7578991
-0.20565085 0.2680023 0.7745406 -0.6059946 0.4315182 0.066942 -0.7245149 1.0414804
0.32192665 0.35169348 -0.18654332 0.04297554 0.51657337 -0.43990973 -0.15493217 0.7803893
0.73205316 0.68437403 1.3858968 1.2440127 1.200153 0.716651 0.006308549 0.52644014
1.1609437 -0.59269613 0.3108155 -0.025053445 -0.13861571 -0.26372918 0.4389663 0.2770771
0.73876864 0.80836344 0.41658702 0.2994716 -0.9620074 -1.2707303 1.479765 -0.4934243
0.7411658 0.9787423 -0.17246543 2.0739367 -1.6989055 -0.960537 2.480655 0.23371267
0.5833809 -0.30998603 0.072061926 -0.4343542 -0.32029298 -0.19025426 -0.44180703 1.2622985
-1.3401217 0.5700726 -0.17886454 0.49518257 -0.20959206 0.45348945 0.4404995 -0.068868615
0.22350287 -0.044463817 0.060191985 -0.39479145 1.0469327 -0.0045512677 0.3676839 0.92587656
-0.26590025 -0.41450378 -0.28659374 0.52715737 0.062204544 -0.2934515 -1.0067253 0.52351534
0.50686026 0.3177871 -0.09544225 -0.03270397 0.64529574 -1.4208026 0.4436389 -0.31423095
0.34595403 -0.3498364 -1.0813304 0.658705 0.17439406 0.24914217 -1.2947478 0.9083335
-0.142321 -0.41452998 1.166159 -1.5027542 -0.05959804 1.1722442 -0.10060489 -0.5133877
1.2555836 0.20219755 -0.35295236 0.07809024 0.41380808 -0.59000033 -0.23022689 -1.606872
-0.58226585 -0.23559524 -0.36212745 -0.74726963 -0.2763926 0.38710624 0.86475945 0.16162445
-0.302706 -0.36913666 1.0538932 -0.2746986 -0.3560966 -0.09939298 0.5330147 0.056956515
0.28167936 -1.3954217 -1.9423828 -0.0062310845 -0.017242229 0.51801264 -0.7226221 0.6730244
1.940988e-39 6.000188e-39 -1.591478e-39 6.540816e-39 -4.334763e-39 6.666174e-39 4.128119e-39 -2.45248e-37
-0.91652703 -0.4135419 1.1480309 0.059998576 -0.41798386 -0.90695655 -0.4781488 0.088075064
0.549404 0.7087688 0.7138704 0.16725108 -0.5822438 -1.0728716 1.0209063 0.008785426
0.15970868 0.5485884 1.0011834 -1.1674337 -0.45487276 -0.91311836 -0.7401845 0.18752101
0.6837349 1.245561 0.6276112 -1.3755047 0.13793959 -0.5083127 -1.1246504 -0.8343097
0.7597978 -0.9143899 -1.1407684 -0.3494611 1.249128 -0.16784698 2.5439498 -1.1323273
-0.14311719 -0.32590553 0.05941437 -0.2990681 -0.7469456 1.1603163 1.0804499 0.18145965
-0.2515229 0.16573815 0.19285695 0.3704462 -0.5286046 -0.8163299 0.42525518 -0.7609982
00000000: 0000 0000 0000 0000 0000 0000 0000 0000
00000010: 0000 0000 0000 0000 0000 0000 0000 0000
00000020: 3b37 a8bb 4bc3 933c efe1 023b 09a2 eb3a
00000030: 4341 19bc 1473 35bc a027 353c 7416 a0ba
00000040: aeff a7bf 7071 eb3f e2fa 98bf d592 753f
00000050: 7850 0abc 8c6f 28bf 3228 fdbe 4075 dfbf
00000060: 950e b8bf 75f6 2a3e e7ff 15be 4dde 913f
00000070: 3aed a7be 37e7 bc3f 50ce 67bf 4f03 0e3e
00000080: 61eb 01bf fe65 003f a536 a2be 629c 8abe
00000090: 65a6 443e 7f27 3bbf afaa b73f 5b15 a13f
000000a0: 1925 6abf 0168 0f40 d56a 83bf b38d 123e
000000b0: f062 75bf 644f 943f 3cd1 06bf e494 773f
000000c0: bcf8 60bf 2f32 25bf 1d95 80bf 394c 503f
000000d0: 3f95 1b3e 84ac 34bf d362 10bf ad05 423f
000000e0: 2396 52be 9937 893e 4b48 463f 7622 1bbf
000000f0: f4ef dc3e e318 893d cf79 39bf 3b4f 853f
00000100: 92d3 a43e 2b11 b43e 3605 3fbe 1f07 303d
00000110: 273e 043f d93b e1be 8aa6 1ebe 98c7 473f
00000120: d667 3b3f 2333 2f3f 1165 b13f cf3b 9f3f
00000130: 9d9e 993f 7176 373f f2b7 ce3b c8c4 063f
00000140: ce99 943f efba 17bf 3623 9f3e e23c cdbc
00000150: 47f1 0dbe 8307 87be 31c0 e03e 0ddd 8d3e
00000160: f11f 3d3f e8f0 4e3f e54a d53e 5754 993e
00000170: 1e46 76bf 4aa7 a2bf f168 bd3f 1ca2 fcbe
00000180: 0bbd 3d3f db8e 7a3f c79a 30be 61bb 0440
00000190: bc75 d9bf c1e5 75bf 0dc3 1e40 6052 6f3e
000001a0: 7358 153f 7db6 9ebe 3495 933d ac63 debe
000001b0: 71fd a3be 03d2 42be 8834 e2be ff92 a13f
000001c0: 1c89 abbf 47f0 113f 4428 37be 9288 fd3e
000001d0: 4d9f 56be c52f e83e 2789 e13e fd0a 8dbd
000001e0: f0dd 643e b11f 36bd df8b 763d 1b22 cabe
000001f0: e401 863f cd22 95bb 1041 bc3e 3f06 6d3f
00000200: 1424 88be d739 d4be 6abc 92be c9f3 063f
00000210: 31ca 7e3d 463f 96be 60dc 80bf 1a05 063f
00000220: 98c1 013f feb4 a23e 3a77 c3bd 99f4 05bd
00000230: 1a32 253f dcdc b5bf a324 e33e e1e2 a0be
00000240: e320 b13e c21d b3be 0969 8abf e4a0 283f
00000250: 5b94 323e 201f 7f3e 4cba a5bf 8b88 683f
00000260: 99bc 11be 463d d4be b344 953f 405a c0bf
00000270: 131d 74bd 190c 963f f009 cebd 606d 03bf
00000280: f7b6 a03f e00c 4f3e 2cb6 b4be c7ed 9f3d
00000290: a7de d33e 430a 17bf 99c0 6bbe fbad cdbf
000002a0: 600f 15bf e13f 71be c568 b9be 104d 3fbf
000002b0: 5583 8dbe ca32 c63e e060 5d3f e180 253e
000002c0: 48fc 9abe 7bff bcbe f9e5 863f 4ba5 8cbe
000002d0: 4b52 b6be 8c8e cbbd a773 083f 3c4b 693d
000002e0: 4738 903e 2e9d b2bf 00a0 f8bf 202e ccbb
000002f0: 933f 8dbc 7a9c 043f c3fd 38bf 544b 2c3f
00000300: af22 1500 1556 4100 6554 1180 2239 4700
00000310: 8e33 2f80 9596 4800 84f3 2c00 3ae8 a682
00000320: 84a1 6abf c4bb d3be adf2 923f 11c1 753d
00000330: fb01 d6be 4e2e 68bf ebcf f4be b360 b43d
00000340: bea5 0c3f df71 353f 36c0 363f de43 2b3e
00000350: ee0d 15bf db53 89bf 0fad 823f bff0 0f3c
00000360: ac8a 233e 4a70 0c3f c726 803f 786e 95bf
00000370: 15e5 e8be 20c2 69bf bb7c 3dbf 8205 403e
00000380: 4009 2f3f 8b6e 9f3f 21ab 203f 8a10 b0bf
00000390: 0940 0d3e c820 02bf 8bf4 8fbf 5295 55bf
000003a0: 1c82 423f 7515 6abf b304 92bf 91ec b2be
000003b0: 6de3 9f3f 14e0 2bbe 13d0 2240 1af0 90bf
000003c0: 508d 12be 17dd a6be 7c5c 733d 741f 99be
000003d0: d437 3fbf 3f85 943f 2f4c 8a3f 8fd0 393e
000003e0: 9cc7 80be 43b7 293e 4b7c 453e 20ab bd3e
000003f0: a252 07bf fffa 50bf 0cbb d93e c7d0 42bf

weight f4 [16, 1120]
0.02963476 0.004185727 0.010382151 0.02807205 0.0051679406 -0.0075227655 -0.010349819 0.02581221
0.029840486 0.01470652 -0.008622985 0.006053934 0.011413893 0.014433635 -0.028595118 -0.027673896
0.007059077 0.018085865 -0.023605999 -0.0010874011 -0.0039536227 0.019343117 0.018333437 -0.0065385588
0.027172556 0.020410044 0.022932624 -0.002548458 0.004681153 -0.012256054 0.0028287824 0.00044765882
0.0205034 -0.016931837 0.02229918 -0.0052078944 0.013359083 0.011635514 -0.007952556 0.0011464525
-0.011567619 -0.020914856 0.0072442275 0.004202647 -0.0017701332 -0.02675331 0.020464865 -0.0040659793
0.01618692 0.018141905 0.0070941057 -0.012043709 0.0046799835 0.01876769 -0.0074718148 -0.015491832
0.01322945 0.0024317782 -0.02316009 -0.02972001 0.0070754495 0.008676419 0.015804438 0.0020046588
0.0026647206 0.019580467 0.0019913372 0.005316941 0.019667955 -0.0048882924 0.0013900194 0.02538261
0.010947285 0.021685528 -0.021837056 -0.017232165 -0.02790505 -0.012421312 -0.024516024 -0.022985816
-0.009908419 0.012934322 -0.024262324 0.018988019 -0.017139498 0.027763078 0.022794528 0.0277923
0.0069707353 -0.0070456173 0.0073434766 -0.01382735 -0.012443479 0.0035009328 -0.015838755 -0.027793804
-0.01767768 -0.025547538 -0.022394981 0.0034713764 -0.0006200541 -0.008763922 0.0019005071 0.0040236283
-0.0007387642 -0.028577521 -0.003510125 0.0038554762 -0.012055628 0.017077396 -0.0178026 -0.015333253
-0.014756691 0.009698903 -0.027851503 0.0054314267 -0.0062174164 -0.007955164 -0.025504887 -0.028020408
-0.014147276 -0.015433895 -0.026153235 0.020327585 0.008553037 0.02835329 -0.02324206 -0.0010482706
0.0033940244 0.019618714 0.0040236693 0.027168198 0.026432382 -0.0048017483 -0.022603372 0.014661493
0.008874843 -0.02146922 -0.025377829 -0.009554407 -0.010194898 -0.0021491926 -0.027766 -0.024329415
0.02742693 -0.0062793083 0.025069213 -0.01475003 -0.0009422712 0.012591781 -0.017378718 0.017183619
0.0027298052 -0.009359496 -0.02087508 0.002397446 0.028133476 -0.0046990104 0.0071666 -0.01625584
-0.010576049 -0.0009808671 -0.025280204 0.020760993 -0.005358262 0.011502551 0.015889307 0.011361351
-0.0031162146 -0.017283682 0.007902848 -0.0002699569 -0.022928346 0.007031543 -0.013245128 -0.028224753
-0.0029285867 -0.006691588 -0.02653382 0.00096647255 -0.025717396 -0.009736618 -0.029302223 0.018482955
0.02149942 -0.0001853481 -0.008827291 0.025822358 0.007331187 0.022261882 -0.025266271 0.0036050547
0.023664469 -0.018140174 0.019799305 0.0094441455 -0.027961474 0.00016491674 0.028348448 0.009309804
-0.0016698651 0.0022588726 -0.018216547 -0.0023617763 0.01822888 0.021238891 -0.024794675 0.014708517
-0.000118480995 -0.012701485 -0.016872868 -0.023508955 0.008415764 -0.004528623 0.02381259 -0.016298447
-0.02733171 0.028191445 0.0164933 0.015692687 -0.02207575 -0.00090789795 -0.029524425 0.013013354
0.005053552 -0.009163585 0.01836815 0.012313167 -0.02827322 0.0041976403 -0.020619538 0.020764383
0.024314405 0.029651819 -0.026010461 -0.009073682 0.014876971 0.019011958 -0.008622687 0.026477167
0.003190564 -0.0038321838 0.02793588 -0.023225822 -0.013885276 -0.025421858 0.016391015 0.01119647
0.0015615728 0.025711326 0.0080794785 -0.025154224 -0.0015951581 0.024693983 -0.0061692446 -0.02152705
00000000: 99c4 f23c 6c28 893b e619 2a3c 5bf7 e53c
00000010: d457 a93b 8881 f6bb 4a92 29bc 2174 d33c
00000020: 0974 f43c 9ef3 703c 6c47 0dbc 1460 c63b
00000030: 5601 3b3c 0e7b 6c3c 4f40 eabc 5eb4 e2bc
00000040: d44f e73b cf28 943c 5e61 c1bc 2087 8eba
00000050: 648d 81bb 7575 9e3c 0130 963c 6841 d6bb
00000060: fb98 de3c f732 a73c 33dd bb3c 0804 27bb
00000070: 5c64 993b 9ecd 48bc 1863 393b c0b3 ea39
00000080: bff6 a73c a3b4 8abc c5ac b63c fca6 aabb
00000090: 0ee0 5a3c e2a2 3e3c 704b 02bc 9044 963a
000000a0: 1c86 3dbc a255 abbc fc60 ed3b 5cb6 893b
000000b0: d003 e8ba c229 dbbc efa5 a73c e83b 85bb
000000c0: 6f9a 843c 559e 943c ac75 e83b fa52 45bc
000000d0: 8c5a 993b b3be 993c 20d6 f4bb 74d1 7dbc
000000e0: 56c0 583c 785e 1f3b 3bba bdbc 6177 f3bc
000000f0: 2cd9 e73b 8a27 0e3c 4f78 813c 9860 033b
00000100: 98a2 2e3b 3767 a03c 1881 023b bc39 ae3b
00000110: b11e a13c f82d a0bb 5031 b63a 31ef cf3c
00000120: 3e5c 333c d9a5 b13c a0e3 b2bc 782a 8dbc
00000130: 2299 e4bc c282 4bbc d4d5 c8bc c04c bcbc
00000140: ec56 22bc 7aea 533c c8c1 c6bc c38c 9b3c
00000150: 2268 8cbc 656f e33c 97bb ba3c adac e33c
00000160: c46a e43b ecde e6bb 8ca1 f03b 1c8c 62bc
00000170: bcdf 4bbc e86f 653b 47c0 81bc d5af e3bc
00000180: c8d0 90bc 1249 d1bc ae75 b7bc 0880 633b
00000190: 208b 22ba 8e96 0fbc 701a f93a a4d8 833b
000001a0: a0a9 41ba 681b eabc 200a 66bb 28ac 7c3b
000001b0: f884 45bc e5e5 8b3c c2d6 91bc 5338 7bbc
000001c0: 0cc6 71bc 26e8 1e3c d628 e4bc 1cfa b13b
000001d0: 78bb cbbb 6056 02bc a0ef d0bc 0e8b e5bc
000001e0: fac9 67bc 73de 7cbc 4f3f d6bc 0986 a63c
000001f0: 0a22 0c3c 2945 e83c 2266 bebc 2066 89ba
00000200: 486e 5e3b 6db7 a03c fcd8 833b d78f de3c
00000210: b988 d83c fc57 9dbb b52a b9bc c236 703c
00000220: ca67 113c 38e0 afbc 2ae5 cfbc 168a 1cbc
00000230: 8008 27bc 78d9 0cbb 8675 e3bc 7b4e c7bc
00000240: 71ae e03c a8c2 cdbb f35d cd3c 1caa 71bc
00000250: c002 77ba c24d 4e3c d05d 8ebc a9c4 8c3c
00000260: 88e6 323b 9258 19bc 3702 abbc 781e 1d3b
00000270: 2d78 e63c 28fa 99bb ccd5 ea3b f82a 85bc
00000280: 2a47 2dbc 7090 80ba 6e18 cfbc f512 aa3c
00000290: 5c94 afbb 3275 3c3c 4b2a 823c f624 3a3c
000002a0: 6839 4cbb 8296 8dbc f27a 013c 0089 8db9
000002b0: 3ad4 bbbc dc68 e63b 1802 59bc 9937 e7bc
000002c0: 88ed 3fbb 1c45 dbbb 745d d9bc e05a 7d3a
000002d0: 4aad d2bc 5686 1fbc 370b f0bc 9169 973c
000002e0: 8d1f b03c 005a 42b9 58a0 10bc 6989 d33c
000002f0: 743a f03b 8d5e b63c 36fb cebc c842 6c3b
00000300: fddb c13c b49a 94bc 2732 a23c 9ebb 1a3c
00000310: 760f e5bc 80ed 2c39 013b e83c 2688 183c
00000320: 60df daba 9809 143b de3a 95bc 08c8 1abb
00000330: bb54 953c 2ffd ad3c 341e cbbc fefb 703c
00000340: 0079 f8b8 e419 50bc f838 8abc da95 c0bc
00000350: 46e2 093c d864 94bb 9f12 c33c 5284 85bc
00000360: c0e6 dfbc bff1 e63c f51c 873c f38d 803c
00000370: 34d8 b4bc 0000 6eba 35dd f1bc f635 553c
00000380: 4498 a53b dc22 16bc cd78 963c 2abd 493c
00000390: 3d9d e7bc 5c8c 893b 4eea a8bc 111a aa3c
000003a0: 012f c73c 5fe8 f23c e413 d5bc c8a9 14bc
000003b0: 8abe 733c f7be 9b3c 2c46 0dbc a5e6 d83c
000003c0: c818 513b 6025 7bbb c9d9 e43c 1444 bebc
000003d0: 127f 63bc 8041 d0bc 7346 863c 6671 373c
000003e0: b0ad cc3a 8fa0 d23c ca5f 043c 3b10 cebc
000003f0: a014 d1ba 094b ca3c 6027 cabb 7f59 b0bc

bias f4 [16]
-0.025180269 0.0019775424 0.008304236 0.02425822 -0.0087409895 0.0021909308 0.02232522 0.02661171
-0.013272209 -0.023531357 -0.012525503 0.025431713 -0.010489309 0.028553946 -0.025606373 0.002364302
00000000: da46 cebc a899 013b 7e0e 083c 2db9 c63c
00000010: 5e36 0fbc b895 0f3b 61e3 b63c cd00 da3c
00000020: ae73 59bc d5c4 c0bc c437 4dbc 2b56 d03c
00000030: 5adb 2bbc f7e9 e93c 75c4 d1bc 68f2 1a3b

weight f4 [16, 16]
-0.17791861 0.17932647 0.16011968 0.13515848 -0.0046873093 -0.08778545 -0.22076085 0.07548788
-0.05862552 0.13197336 0.08925453 -0.14078373 -0.06660399 0.1268633 -0.19069359 -0.096004754
0.22589606 0.23046306 -0.117173135 0.23199701 0.13443187 -0.034099102 -0.027061313 0.00790292
-0.12859532 -0.01448229 0.19009721 0.13380799 0.10669246 -0.13500169 0.113509834 0.22405261
-0.12847036 -0.051408857 0.22475624 -0.07918194 0.09023675 0.18818176 0.17535523 0.23323616
-0.075892955 0.17586154 0.14906088 0.17241973 -0.021371722 0.112844706 -0.17907354 -0.007725477
-0.12779012 0.15300754 0.2178705 0.098606795 0.15478882 0.06995201 -0.16688514 0.060371667
0.0010188818 -0.22285452 -0.014432073 0.07276994 -0.08461365 0.20150164 -0.027139544 0.054532558
-0.14992526 -0.24274305 -0.018627912 -0.08374244 -0.084628075 -0.101240456 0.15908301 -0.048773587
0.0064722896 0.02702874 -0.082086176 -0.15251401 -0.096185446 -0.1503368 0.20334333 -0.18394527
0.19832486 0.23771572 0.15226412 -0.08656308 -0.06993285 0.18617511 -0.15726054 -0.22000107
-0.15403977 0.025735766 0.14401564 -0.18933311 0.017918766 -0.11494714 -0.22493577 0.080964535
0.1451005 0.12510559 0.11333293 0.18146876 0.09168595 -0.2127352 -0.13781017 0.19353694
0.065110326 -0.15278792 0.22617495 0.09876421 0.062333703 0.05687517 -0.16740105 0.20576367
0.05599487 -0.22293144 0.060120255 -0.046858847 -0.19614986 0.05912888 -0.19474405 -0.03461042
0.12220806 0.10119644 0.23164338 0.22690171 0.21214578 -0.027480364 0.17215115 0.0012103915
0.2013956 -0.1801979 -0.035449952 0.16583341 0.056789666 -0.12982014 0.23041275 0.08999959
0.19920355 -0.20021409 -0.060629994 -0.03603542 0.010642409 0.1763744 -0.053583592 0.06077656
0.09853181 0.013756096 -0.18482018 -0.082821935 -0.19958332 -0.20089418 0.07677251 -0.0076749325
-0.06809878 -0.08243349 0.22846383 0.23422417 0.01844269 -0.24937564 0.18711868 -0.056983054
-0.19985312 -0.06920561 0.119630456 -0.0027784407 -0.21769503 0.011486113 -0.082674414 -0.21354139
-0.18103597 0.19740349 0.052211046 -0.118590206 0.05323696 0.2358259 0.032517612 0.16500139
0.21086848 -0.15296477 0.056976974 0.015806824 0.094225466 -0.023709297 0.21955809 0.072665155
0.153429 -0.11284548 0.21489981 -0.12784305 -0.04807183 0.124200225 0.06486356 0.12613726
0.004439056 -0.17063838 0.0055915415 0.019927979 -0.017977536 -0.10676238 -0.017393261 0.17323425
0.18111104 0.24759889 0.052875668 -0.054432213 -0.11491847 0.08665636 -0.22994113 0.16422677
0.19430378 -0.011766583 0.22685105 0.21101046 0.20686638 -0.18711635 0.0009379685 -0.19356295
0.17170757 0.05833295 0.18212625 -0.038665533 -0.04082063 -0.12692109 0.18850353 -0.024262756
-0.2249774 -0.17031834 0.082447946 -0.1953856 -0.17865586 -0.15444756 -0.027875453 -0.08787677
-0.03022182 -0.13108131 0.16937494 -0.21988699 -0.16962242 -0.17241162 -0.10037765 -0.11276883
-0.20480552 0.08941075 -0.11623582 -0.23882398 -0.13466635 -0.006193429 0.08255473 -0.107956916
0.064112455 0.081012964 0.11465478 0.0071789324 -0.11145753 0.20502502 0.12501007 0.025396347
00000000: 4c30 36be 5ca1 373e 6af6 233e fc66 0a3e
00000010: 0098 99bb dcc8 b3bd 220f 62be 6499 9a3d
00000020: 5021 70bd 0624 073e 14cb b63d 9c29 10be
00000030: ac67 88bd 74e8 013e 2e45 43be 249e c4bd
00000040: 4c51 673e 82fe 6b3e 78f8 efbd a090 6d3e
00000050: 82a8 093e 80ab 0bbd b0af ddbc 407b 013c
00000060: 7eae 03be 2047 6dbc d8a8 423e f604 093e
00000070: 9481 da3d e23d 0abe d877 e83d 0c6e 653e
00000080: bc8d 03be 1892 52bd 8026 663e 242a a2bd
00000090: 0cce b83d b8b2 403e 5290 333e 76d5 6e3e
000000a0: c46d 9bbd 0c15 343e 6aa3 183e cc8e 303e
000000b0: c013 afbc 201b e73d 0e5f 37be 0026 fdbb
000000c0: 6adb 02be 02ae 1c3e 7219 5f3e 5cf2 c93d
000000d0: f680 1e3e 0043 8f3d f0e3 2abe 4848 773d
000000e0: 008c 853a fa33 64be 8074 6cbc 6808 953d
000000f0: ec49 adbd 7256 4e3e c053 debc 885d 5f3d
00000100: 0286 19be a291 78be 9099 98bc 2881 abbd
00000110: 7c51 adbd 2857 cfbd a8e6 223e d0c6 47bd
00000120: 8015 d43b 606b dd3c cc1c a8bd a22c 1cbe
00000130: e0fc c4bd e4f1 19be 3c39 503e 265c 3cbe
00000140: ac15 4b3e c06b 733e 20eb 1b3e fc47 b1bd
00000150: f438 8fbd b0a4 3e3e e808 21be f647 61be
00000160: 9abc 1dbe d0d3 d23c d678 133e 8ae0 41be
00000170: 60ca 923c 6869 ebbd 9055 66be bcd0 a53d
00000180: 3a95 143e ae1b 003e 181b e83d f2d2 393e
00000190: d8c5 bb3d 42d7 59be 1c1e 0dbe 8c2e 463e
000001a0: 9058 853d 7074 1cbe 689a 673e e444 ca3d
000001b0: a051 7f3d f0f5 683d 2e6b 2bbe b6b3 523e
000001c0: e05a 653d 2448 64be a840 763d 10ef 3fbd
000001d0: 82db 48be 2031 723d fc6a 47be a8c3 0dbd
000001e0: 3848 fa3d 1440 cf3d ec33 6d3e ec58 683e
000001f0: be3c 593e 801e e1bc 6448 303e 00a6 9e3a
00000200: a63a 4e3e cc85 38be f833 11bd 3cd0 293e
00000210: 489c 683d 92ef 04be 52f1 6b3e b451 b83d
00000220: 04fc 4b3e ec04 4dbe 2857 78bd e099 13bd
00000230: 805d 2e3c 7e9b 343e 787a 5bbd d8f0 783d
00000240: 0ccb c93d 4061 613c 8041 3dbe 8c9e a9bd
00000250: 925f 4cbe 34b7 4dbe e83a 9d3d 007e fbbb
00000260: 6077 8bbd e4d2 a8bd 6cf2 693e 76d8 6f3e
00000270: 2015 973c 545c 7fbe 0a9c 3f3e 1067 69bd
00000280: 4ca6 4cbe acbb 8dbd d000 f53d 8016 36bb
00000290: 72eb 5ebe 4030 3c3c 3451 a9bd 98aa 5abe
000002a0: 7e61 39be 2424 4a3e 40db 553d 6cdf f2bd
000002b0: 000f 5a3d 587c 713e 3031 053d 20f6 283e
000002c0: e8ed 573e cca2 1cbe b060 693d 507d 813c
000002d0: 48f9 c03d 003a c2bc d6d3 603e 78d1 943d
000002e0: 7e1c 1d3e 881b e7bd b20e 5c3e 4ae9 02be
000002f0: f8e6 44bd b05c fe3d 30d7 843d 202a 013e
00000300: 8075 913b d4bb 2ebe 4039 b73b 0040 a33c
00000310: a045 93bc 3ca6 dabd 507c 8ebc 5264 313e
00000320: 2c75 393e 908a 7d3e 2894 583d 50f4 5ebd
00000330: 605a ebbd e478 b13d b075 6bbe 102b 283e
00000340: 92f7 463e a0c8 40bc a44b 683e 2013 583e
00000350: c8d4 533e 6e9b 3fbe 00e2 753a 5e35 46be
00000360: 1cd4 2f3e 88ee 6e3d 4e7f 3a3e c05f 1ebd
00000370: 8833 27bd 9af7 01be 1207 413e b0c2 c6bc
00000380: 7a60 66be ee67 2ebe 78da a83d 2a13 48be
00000390: 90f1 36be 8027 1ebe 105b e4bc bcf8 b3bd
000003a0: c093 f7bc 2e3a 06be a070 2d3e 0e2a 61be
000003b0: 80b1 2dbe ac8c 30be cc92 cdbd 58f3 e6bd
000003c0: 8ab8 51be fc1c b73d 0c0d eebd 468e 74be
000003d0: fae5 09be 40f2 cabb 7412 a93d 8418 ddbd
000003e0: 644d 833d 20ea a53d 20d0 ea3d 403d eb3b
000003f0: d843 e4bd 14f2 513e a402 003e 000c d03c

bias f4 [16]
0.1699507 -0.15643358 0.21747091 -0.15518823 -0.07140687 -0.054314792 -0.21609578 0.09611404
0.009459734 0.055277348 -0.057598114 0.03889677 -0.1652326 -0.17287162 -0.20797917 -0.13542992
00000000: 8e07 2e3e 2030 20be b2b0 5e3e aae9 1ebe
00000010: c43d 92bd 3079 5ebd 3648 5dbe 70d7 c43d
00000020: 00fd 1a3c 806a 623d 00ec 6bbd 3852 1f3d
00000030: bc32 29be 4205 31be 7ef8 54be 24ae 0abe

weight f4 [1, 16]
0.13622871 -0.24561492 -0.11881387 0.18332383 -0.07823655 0.17098722 0.055087417 -0.23830345
-0.24761519 0.12317315 -0.08202669 -0.18284574 -0.1307671 -0.12759784 -0.1242353 0.15289575
00000000: 8a7f 0b3e 7a82 7bbe b054 f3bd 3eb9 3b3e
00000010: 7c3a a0bd 4617 2f3e 58a3 613d d205 74be
00000020: d68e 7dbe 3442 fc3d 9cfd a7bd ea3b 3bbe
00000030: d0e7 05be 02a9 02be 146f febd b490 1c3e

weight_ih_l0 f4 [64, 8]
-0.25688612 0.6049948 -0.59754884 0.007956309 -0.47355095 0.12976323 -0.010439045 0.075757794
-0.22603197 0.40692577 0.0087066535 -0.00084140146 -0.66942364 0.32465193 -0.047301386 0.1181192
0.30851448 0.018361554 -0.30372232 0.3468687 -0.6701496 -0.30253625 0.46400225 0.11098302
-0.10298258 0.7967878 0.008678987 0.055290285 0.12825295 0.15909725 -0.21460684 -0.16588846
-0.59195983 0.2408417 -0.39294213 0.17691448 0.026060779 0.09671399 0.10968282 -0.21497448
-0.068983346 -0.15085864 -0.77293366 0.9286152 0.05231139 -0.1551976 0.2832254 -0.35688683
-0.10662194 0.19514957 -0.16205381 -0.04191305 -0.31131646 0.00032221177 -0.49967915 -0.29954964
-0.1313103 -0.10926985 -0.47254676 0.2761132 0.014706964 -0.21267329 0.3057879 -0.23208974
-0.07972658 0.25367147 -0.114861354 -0.16142167 -0.47123572 -0.14502782 0.45865244 -0.33296204
-0.02766402 -0.13596235 0.028020587 -0.27149877 -0.19683129 -0.03612353 -0.26671818 0.10741003
-0.18052427 0.22568892 0.020829763 -0.30383176 -0.073970616 -0.06130066 -0.53956056 -0.23194662
0.016811747 0.01919995 -0.17184788 -0.08442074 0.31548065 -0.0460099 -0.41852498 -0.40054414
-0.26503402 -0.20494796 -0.022602888 0.32661816 -0.05903337 -0.41308898 0.17366768 -0.24114524
-0.24257705 0.41892028 0.45267493 0.17641418 -0.53097993 -0.16202983 -0.2579472 -0.08944659
-0.13466993 0.35022846 -0.47176018 0.23395462 -0.23523313 0.23779516 -0.29878756 -0.3505684
-0.17242688 0.027799763 -0.09670379 -0.39646456 0.2574347 -0.27472794 -0.33369005 -0.7053863
0.031794835 -0.24398082 0.6138083 0.012392087 0.03761303 -0.49176067 0.3580977 0.32718998
0.1041127 -0.530835 0.2551833 0.28612256 0.5939652 -0.14083229 -0.072007865 -0.09156616
-0.42783 0.76905566 0.19425601 -0.13169698 0.11668355 0.63438255 -0.31458196 0.23911712
0.28009865 -0.29277858 0.5028373 -0.11624325 -0.068659686 -0.22410983 0.114170685 0.17226174
0.1621815 -0.41996396 0.24170843 0.19836403 0.5973856 0.14939934 -0.1896494 0.19252309
-0.37182823 0.40106067 0.19339983 0.58016527 -0.14655428 0.41217384 0.16555658 0.555845
0.1444085 0.07526558 0.2829236 0.17542934 -0.13736558 0.14189501 -0.18759622 0.4765478
-0.3514647 0.4451661 0.17725576 0.22385488 -0.3613011 0.17898168 -0.07934327 0.14258078
0.08870803 0.90230143 0.62064 -0.44456354 0.38039526 0.16684508 -0.04310056 -0.09831249
-0.102921814 -0.0024968856 0.37431303 0.09081065 -0.013502003 0.14006257 0.095666684 0.42101246
0.103071906 0.243657 0.25164557 0.34162912 0.11328925 0.23286852 0.08809755 -0.07522598
-0.07821135 0.07506344 -0.12209273 0.25517708 0.18363392 0.065924995 0.03908707 0.26645938
-0.17103374 0.3807278 -0.061495706 0.1224704 -0.5450726 0.04375481 -0.120351076 0.024296679
-0.2530319 -0.4824781 -0.32869843 -0.09432107 0.14853318 0.1322174 -0.11522119 0.30196008
0.08263545 -0.35329702 0.20552821 -0.11357705 0.36820868 -0.34664476 -0.002258896 -0.10252947
-0.18682234 -0.13522577 0.32101297 -0.06445234 0.3238678 -0.25412053 0.30601165 -0.5066972
00000000: 9486 83be f0e0 1a3f f6f8 18bf 2e5b 023c
00000010: 4575 f2be a7e0 043e 8708 2bbc e726 9b3d
00000020: ed74 67be 9358 d03e 5aa6 0e3c 7f91 5cba
00000030: 595f 2bbf c738 a63e 19bf 41bd 7be8 f13d
00000040: 9cf5 9d3e f86a 963c 7e81 9bbe c698 b13e
00000050: ed8e 2bbf 08e6 9abe b491 ed3e 114b e33d
00000060: 88e8 d2bd 49fa 4b3f 4f32 0e3c 1178 623d
00000070: be54 033e 64ea 223e e5c1 5bbe aade 29be
00000080: ae8a 17bf 359f 763e b62f c9be 1229 353e
00000090: 6a7d d53c fc11 c63d 63a1 e03d 4522 5cbe
000000a0: 2447 8dbd b07a 1abe fbde 45bf bab9 6d3f
000000b0: 7844 563d 1fec 1ebe eb02 913e dfb9 b6be
000000c0: 9b5c dabd 4ad5 473e 6ff1 25be 05ad 2bbd
000000d0: df64 9fbe 88ee a839 f2d5 ffbe 925e 99be
000000e0: 3576 06be dfc8 dfbd a6f1 f1be b65e 8d3e
000000f0: 7af5 703c 07c7 59be 3b90 9c3e efa8 6dbe
00000100: b047 a3bd 3ae1 813e 6e3c ebbd b94b 25be
00000110: cf45 f1be 2c82 14be 7ed4 ea3e 007a aabe
00000120: a89f e2bc b739 0bbe 6e8b e53c e301 8bbe
00000130: 248e 49be 44f6 13bd 498f 88be caf9 db3d
00000140: 5bdb 38be ff1a 673e 2ea3 aa3c d68f 9bbe
00000150: e87d 97bd 6716 7bbd a420 0abf 6a83 6dbe
00000160: cab8 893c 3749 9d3c e4f8 2fbe c8e4 acbd
00000170: ae86 a13e e074 3cbd e848 d6be 1f14 cdbe
00000180: 8ab2 87be e1dd 51be b129 b9bc 7f3a a73e
00000190: facc 71bd 6680 d3be f1d5 313e c7ee 76be
000001a0: 1e66 78be b87c d63e 02c5 e73e eba5 343e
000001b0: 4dee 07bf 26eb 25be a811 84be c62f b7bd
000001c0: eae6 09be 2551 b33e 8d8a f1be cd91 6f3e
000001d0: f4e0 70be 9380 733e affa 98be b47d b3be
000001e0: ac90 30be 54bc e33c a30c c6bd 67fd cabe
000001f0: 7bce 833e 24a9 8cbe 6cd9 aabe 3294 34bf
00000200: 4d3b 023d 1cd6 79be 8a22 1d3f 2e08 4b3c
00000210: 1f10 1a3d 0ec8 fbbe 9558 b73e 7285 a73e
00000220: 0a39 d53d cde4 07bf 63a7 823e a87e 923e
00000230: 1a0e 183f 5736 10be dc78 93bd 0a87 bbbd
00000240: 890c dbbe d5e0 443f 0ceb 463e 93db 06be
00000250: c9f7 ee3d e566 223f e310 a1be 1edb 743e
00000260: 1769 8f3e 13e7 95be f2b9 003f f110 eebd
00000270: 739d 8cbd 0c7d 65be 52d2 e93d 6265 303e
00000280: e812 263e 8405 d7be 6a82 773e f11f 4b3e
00000290: 43ee 183f 24fc 183e 7433 42be c624 453e
000002a0: 4560 bebe d357 cd3e 9b0a 463e b685 143f
000002b0: 5312 16be 7308 d33e aa87 293e dc4b 0e3f
000002c0: d2df 133e d724 9a3d 5ddb 903e c0a3 333e
000002d0: 90a9 0cbe ed4c 113e 3919 40be 13fe f33e
000002e0: 2ef3 b3be d0ec e33e 8982 353e 373a 653e
000002f0: 75fc b8be f946 373e b97e a2bd b200 123e
00000300: 8eac b53d 3afd 663f 43e2 1e3f d59d e3be
00000310: 2bc3 c23e 70d9 2a3e 368a 30bd 0f58 c9bd
00000320: acc8 d2bd caa2 23bb f5a5 bf3e effa b93d
00000330: 8137 5dbc 906c 0f3e e5ec c33d f28e d73e
00000340: 5d17 d33d 3881 793e b0d7 803e 03ea ae3e
00000350: 3204 e83d 1675 6e3e 7d6c b43d 1410 9abd
00000360: 462d a0bd dcba 993d c10b fabd 92a6 823e
00000370: 880a 3c3e af03 873d c319 203d 5d6d 883e
00000380: 7823 2fbe c1ee c23e ece2 7bbd c3d1 fa3d
00000390: e189 0bbf 3e38 333d a07a f6bd d409 c73c
000003a0: 668d 81be 5f07 f7be 294b a8be 682b c1bd
000003b0: 1519 183e 0064 073e 16f9 ebbd 839a 9a3e
000003c0: c63c a93d 59e3 b4be fd75 523e 169b e8bd
000003d0: d985 bc3e 6c7b b1be fc09 14bb f9fa d1bd
000003e0: 5b4e 3fbe a078 0abe d05b a43e 97ff 83bd
000003f0: 00d2 a53e 161c 82be 8fad 9c3e e8b6 01bf

weight_hh_l0 f4 [64, 16]
-0.16437323 0.004011903 -0.095894 -0.11470104 -0.09097239 0.16512944 -0.059455164 0.080997415
0.14711833 -0.22544678 -0.12580268 -0.14805593 0.14453508 -0.3356231 -0.16647582 0.01033819
-0.3223023 0.050278008 0.24344817 -0.11063039 -0.15246685 -0.07684811 -0.046120107 -0.4318932
-0.24772823 -0.05557667 0.21335621 0.23548515 -0.107927054 0.21557988 0.009555546 -0.11842236
-0.1433757 -0.19357692 0.13723673 0.24016581 0.23090428 0.30027425 -0.23934437 0.29785296
-0.23423153 0.11812745 0.005655365 0.25082138 -0.015962139 -0.1878478 0.09266512 0.16000998
0.15681295 0.096121736 -0.14541066 -0.12024354 0.1860059 -0.22489625 0.029490031 0.08806293
0.14242446 -0.2504483 -0.21383484 0.04322458 0.10148304 -0.26394072 -0.4126494 0.03291481
0.09699936 0.29679948 0.14777645 -0.16106686 0.037863646 0.10865646 0.13304436 -0.13389452
-0.029450608 0.14322351 -0.18370886 -0.032442417 0.081668176 0.17031525 0.17944607 0.105524495
0.24675666 0.21563827 0.12453738 -0.24603868 0.18683721 -0.000597032 0.04388993 0.18304445
-0.12452478 0.1518303 -0.1359044 -0.029458253 -0.084893815 0.28766185 -0.023088783 0.1982622
-0.1390088 0.12681681 0.18710034 0.05144907 0.21860963 -0.25950187 0.22753859 -0.07466442
-0.1898442 -0.097335376 -0.2709438 -0.0382233 -0.1883279 0.13972022 0.24212274 0.21777059
-0.048707798 -0.07842852 0.07719029 0.090498455 -0.12496443 -0.0023261441 -0.038732704 0.03662982
0.024013877 0.08589044 0.087588556 -0.085199215 -0.1660522 0.088932276 -0.0723108 -0.0733521
-0.23648192 -0.16607423 0.13748835 0.34314853 -0.043076366 0.28288636 -0.12142078 0.12991293
-0.38065878 -0.10077062 0.041919824 0.35691166 0.1138917 -0.30142313 0.07508664 0.09728893
-0.118601955 -0.045807935 0.01336569 0.0583041 0.024012517 -0.08741743 0.053925168 -0.0624678
-0.019596832 -0.09217365 -0.076943494 -0.011990333 -0.021926567 0.073805355 0.005925504 0.029161466
-0.17694286 0.1055514 0.07123947 0.08508872 0.020282928 -0.13635421 -0.0024108032 -0.057192735
-0.29579392 -0.15972945 0.027369726 -0.031112026 -0.1710724 0.15047 0.20836242 0.18057254
0.040267024 0.2210243 0.10959386 0.050556123 0.08393022 -0.053450767 0.17712069 -0.11021537
-0.19289002 0.031614028 -0.19052526 -0.037109703 -0.1151174 0.22235706 0.2777984 0.2570726
-0.15013583 -0.120255046 0.054804053 0.21525201 0.010262251 -0.10312291 -0.01799354 0.1848625
-0.085650116 -0.052251317 0.03687501 0.040419318 -0.07273734 0.047400724 -0.10304954 0.051845368
-0.131041 -0.067337416 0.2352575 0.040425245 0.14945261 -0.09215313 0.14725627 -0.04741064
-0.17879362 -0.19616641 -0.114198506 0.085406154 -0.31684312 0.2273992 -0.23325758 -0.06564806
0.31452218 0.10382923 0.03156054 -0.07119152 -0.040268008 0.1575203 0.014793292 -0.00760879
-0.12806247 0.11833909 -0.08329947 -0.0044739437 -0.055982932 0.082850225 0.03912609 0.19408037
0.082631305 0.11530604 -0.33260816 0.13183463 0.08713756 -0.27022165 0.032202218 -0.21411254
0.37455845 0.09142618 0.17648135 -0.13871449 -0.09864933 0.14710864 -0.09412109 -0.008113511
00000000: 7551 28be 4876 833b 1364 c4bd 61e8 eabd
00000010: bb4f babd b117 293e 4287 73bd f9e1 a53d
00000020: 30a6 163e 85db 66be 6bd2 00be f99b 17be
00000030: 0101 143e cad6 abbe a378 2abe 8361 293c
00000040: cf04 a5be 50f0 4d3d 7a4a 793e 3092 e2bd
00000050: 4520 1cbe 8b62 9dbd 70e8 3cbd 1b21 ddbe
00000060: 78ac 7dbe 5da4 63bd 0d7a 5a3e 0523 713e
00000070: dc08 ddbd f9c0 5c3e dd8e 1c3c 6c87 f2bd
00000080: 14d1 12be 0739 46be c987 0c3e 07ee 753e
00000090: 2c72 6c3e 8cbd 993e b116 75be 2f80 983e
000000a0: 64da 6fbe ceec f13d a450 b93b a96b 803e
000000b0: 08c3 82bc 2c5b 40be 36c7 bd3d a8d9 233e
000000c0: 9393 203e 79db c43d 88e6 14be 3f42 f6bd
000000d0: 5578 3e3e 344b 66be 1495 f13c 565a b43d
000000e0: b8d7 113e c23a 80be 85f7 5abe 420c 313d
000000f0: 57d6 cf3d 3d23 87be c846 d3be aed1 063d
00000100: 9aa7 c63d 1af6 973e b652 173e b6ee 24be
00000110: e916 1b3d 4787 de3d c83c 083e a51b 09be
00000120: 6742 f1bc 2fa9 123e 2d1e 3cbe 57e2 04bd
00000130: a541 a73d 1f67 2e3e b6c0 373e 3a1d d83d
00000140: c7ad 7c3e 47d0 5c3e 740d ff3d 90f1 7bbe
00000150: 4152 3f3e 2482 1cba edc5 333d 0170 3b3e
00000160: d906 ffbd 6779 1b3e 862a 0bbe 6f52 f1bc
00000170: cfdc adbd 6a48 933e b024 bdbc 3f05 4b3e
00000180: 5358 0ebe 44dc 013e 3b97 3f3e 43bc 523d
00000190: 34db 5f3e 6edd 84be e0ff 683e a9e9 98bd
000001a0: 8566 42be c557 c7bd 25b9 8abe 0990 1cbd
000001b0: 07d9 40be d112 0f3e 06ef 773e 41ff 5e3e
000001c0: d481 47bd 229f a0bd f115 9e3d 4157 b93d
000001d0: 5aed ffbd 3972 18bb 2fa6 1ebd 2609 163d
000001e0: c0b8 c43c 54e7 af3d a161 b33d ed7c aebd
000001f0: 9709 2abe 2022 b63d af17 94bd a039 96bd
00000200: 5128 72be 5d0f 2abe bfc9 0c3e 2ab1 af3e
00000210: d870 30bd 7bd6 903e 75ab f8bd e507 053e
00000220: b5e5 c2be d460 cebd 1fb4 2b3d 20bd b63e
00000230: 0d40 e93d 2254 9abe 06c7 993d 6b3f c73d
00000240: 95e5 f2bd 1aa1 3bbd c4fb 5a3c 48d0 6e3d
00000250: e6b5 c43c e907 b3bd a3e0 5c3d 3cde 7fbd
00000260: 8989 a0bc 8ac5 bcbd 8d94 9dbd 1a73 44bc
00000270: 589f b3bc 4327 973d bb2a c23b 07e4 ee3c
00000280: 8230 35be 552b d83d 00e6 913d ff42 ae3d
00000290: 6228 a63c 70a0 0bbe 91fe 1dbb ee42 6abd
000002a0: 4d72 97be 1e90 23be 7a36 e03c a6de febc
000002b0: 9a2d 2fbe cf14 1a3e f55c 553e 02e8 383e
000002c0: 09ef 243d 3254 623e bf72 e03d f013 4f3d
000002d0: 9be3 ab3d 31ef 5abd 205f 353e 99b8 e1bd
000002e0: f684 45be b67d 013d 0e19 43be 5800 18bd
000002f0: acc2 ebbd 92b1 633e 983b 8e3e 059f 833e
00000300: 35bd 19be 4748 f6bd 377a 603d 066b 5c3e
00000310: 0023 283c 1b32 d3bd 3067 93bc 984c 3d3e
00000320: 5469 afbd 7a05 56bd 400a 173d ba8e 253d
00000330: 51f7 94bd 4327 423d a30b d3bd cf5b 543d
00000340: 9d2f 06be 33e8 89bd 58e7 703e f194 253d
00000350: 1b0a 193e c8ba bcbd 59ca 163e a931 42bd
00000360: ad15 37be d9df 48be e8e0 e9bd 6ce9 ae3d
00000370: 4339 a2be 56db 683e 13db 6ebe 7d72 86bd
00000380: 0d09 a13e 6ba4 d43d a045 013d dccc 91bd
00000390: 11f0 24bd 004d 213e 905f 723c 2853 f9bb
000003a0: cf22 03be c45b f23d ea98 aabd 299a 92bb
000003b0: 5c4e 65bd 61ad a93d ae42 203d 01bd 463e
000003c0: 9a3a a93d 9325 ec3d 9e4b aabe a8ff 063e
000003d0: 2d75 b23d 7e5a 8abe 79e6 033d 5140 5bbe
000003e0: 20c6 bf3e a63d bb3d 87b7 343e 2c0b 0ebe
000003f0: a908 cabd a6a3 163e 8fc2 c0bd 88ee 04bc

bias_ih_l0 f4 [64]
-0.23634495 0.027306033 -0.035369065 0.08917308 0.16358511 -0.24763827 -0.09009119 -0.025014985
0.039570473 0.13855644 0.18519375 0.14743352 -0.09786586 0.19159503 -0.018866042 -0.027175007
0.29902965 0.15624247 0.19498238 0.30714366 0.28497246 0.12888466 0.17303194 0.10645681
0.23888998 0.12118316 -0.043350857 0.14438842 -0.048198562 0.116483636 0.22305556 0.22402346
-0.067509554 -0.079487875 -0.27580526 0.013028282 -0.041037474 -0.024088016 -0.15428574 0.13411649
0.24702619 -0.1322549 0.207021 -0.0196671 -0.114067785 -0.2793825 0.08855345 -0.10428428
0.15095788 0.37508765 0.18333146 0.269227 0.34205204 0.044216998 0.22545253 0.06702705
0.48559633 0.25443807 0.29173285 0.32216486 0.02536164 0.44832966 0.41362253 0.20260179
00000000: 6904 72be e7b0 df3c 27df 10bd 60a0 b63d
00000010: db82 273e e394 7dbe bb81 b8bd 3aec ccbc
00000020: a614 223d bde1 0d3e 6ea3 3d3e d0f8 163e
00000030: e56d c8bd 7d31 443e f58c 9abc 1f9e debc
00000040: 6a1a 993e 07fe 1f3e 76a9 473e ef41 9d3e
00000050: e9e7 913e 57fa 033e 492f 313e 0706 da3d
00000060: 939f 743e e02e f83d ab90 31bd 8fda 133e
00000070: db6b 45bd f98e ee3d ad68 643e 6866 653e
00000080: 7342 8abd 8aca a2bd 5936 8dbe 9374 553c
00000090: e916 28bd 3b54 c5bc 15fd 1dbe d555 093e
000000a0: 6ff4 7c3e d46d 07be 50fd 533e e61c a1bc
000000b0: 5f9c e9bd 390b 8fbe 835b b53d ff92 d5bd
000000c0: b494 1a3e 7d0b c03e 3ebb 3b3e 1fd8 893e
000000d0: 7221 af3e e21c 353d 07dd 663e 7a45 893d
000000e0: 15a0 f83e b545 823e 025e 953e cbf2 a43e
000000f0: 37c3 cf3c 778b e53e 55c6 d33e d876 4f3e

bias_hh_l0 f4 [64]
-0.099937506 0.00484211 -0.111139305 -0.14230019 0.060466193 -0.0143812345 -0.101902105 0.017832091
0.102086194 0.15058589 0.17004748 0.19265416 0.05085542 0.14768478 0.011353598 -0.03384341
0.3979664 0.20408468 0.08551554 0.22924863 0.3194843 0.15630645 0.053723227 0.043481767
0.19051796 0.13490187 -0.1509103 0.15328567 0.018834028 0.19256842 0.27599904 0.104365975
0.07007589 -0.068152264 0.062325057 -0.12442071 0.034732133 0.065408684 -0.20275448 0.12516351
-0.15901305 0.08494471 0.029442959 0.14145155 0.04728048 0.0788707 -0.10790847 0.033616453
0.22329989 0.3698934 0.26395395 0.16933474 0.34944403 0.20360707 0.3063069 0.11510713
0.32951587 0.2974506 0.32598698 0.38815957 -0.014474371 0.3694268 0.39401492 0.19966796
00000000: 09ac ccbd 90aa 9e3b 019d e3bd 24b7 11be
00000010: 66ab 773d 459f 6bbc 0db2 d0bd 9b14 923c
00000020: 9112 d13d 3033 1a3e ed20 2e3e 2247 453e
00000030: c64d 503d ae3a 173e 7104 3a3c 639f 0abd
00000040: 41c2 cb3e 93fb 503e c522 af3d 27c0 6a3e
00000050: 7293 a33e cc0e 203e e30c 5c3d f019 323d
00000060: 2417 433e b723 0a3e 3b88 1abe ebf6 1c3e
00000070: d249 9a3c a830 453e bf4f 8d3e d4bd d53d
00000080: f383 8f3d 6a93 8bbd 8f48 7f3d 49d0 febd
00000090: 4843 0e3d fdf4 853d df9e 4fbe dd2a 003e
000000a0: 51d4 22be 7ef7 ad3d 5c32 f13c add8 103e
000000b0: 2da9 413d f686 a13d 1eff dcbd 68b1 093d
000000c0: baa8 643e ab62 bd3e f924 873e 1666 2d3e
000000d0: 54ea b23e 5f7e 503e 42d4 9c3e 49bd eb3d
000000e0: 4eb6 a83e 724b 983e c4e7 a63e dabc c63e
000000f0: ea25 6dbc 8225 bd3e 53bc c93e c275 4c3e

weight_ih_l0_reverse f4 [64, 8]
0.036670316 0.47456083 -0.15082993 0.19903031 -0.22643036 -0.10224424 0.07314942 -0.31837177
-0.1045141 -0.113868795 -0.31640378 0.9206416 -0.016665094 -0.19940807 0.30297935 -0.30035627
-0.054563604 -0.16191553 -0.05986008 0.32054898 -0.099995054 0.12511432 -0.2628329 0.07721707
-0.20541018 -0.10702338 0.34792295 0.4983776 -0.29650176 -0.4739856 -0.097776935 -0.17689422
-0.11152507 -0.088893 -0.22156003 0.16388714 0.20078766 -0.033444047 -0.047223017 -0.36936453
0.13341099 0.6109963 -0.038576882 -0.094803326 0.025115106 -0.30095768 -0.30139866 -0.1434365
-0.13644777 0.030541148 0.17839953 0.004247144 0.07409682 0.066255964 -0.70442915 0.04240184
-0.09792326 0.42741543 0.13659412 0.5803161 -0.081256695 -0.48513123 0.6982701 0.28473708
0.4346412 0.051790584 -0.037990246 -0.09117137 0.28749397 0.07794189 -0.09109313 0.04462763
0.63951486 0.1735916 -0.17914784 -0.66823053 -0.44655222 -0.025151428 0.10791163 -0.28173658
0.09074534 0.26474467 -0.2919108 0.003584139 -0.4466856 -0.7477857 0.6012912 -0.58163893
-0.12060661 -0.085532576 -0.30126798 -0.13778959 -0.1497249 0.30934304 -0.08362699 0.096849896
-0.104163624 -0.0018505814 0.11795633 0.109584 -0.19529162 -0.4443876 0.2582811 -0.18299277
0.65947765 0.17387995 -0.1328732 0.0367773 -0.17981952 -0.25607243 0.27405244 -0.45385212
-0.18665136 -0.113464035 -0.31296018 0.18057062 -0.00148812 0.08548698 0.11976181 0.050749235
0.15437704 -0.08546879 -0.13223094 -0.45149776 -0.20109947 0.18341662 -0.102044195 -0.10449547
-0.20288661 0.43223146 0.50082034 -0.2966561 0.16184261 -0.019491235 0.36818022 0.17887399
0.31517726 -1.045136 0.7135832 -0.52963066 0.003961283 0.43611008 -0.25042135 0.67116684
-0.041200995 -0.19502419 -0.13086167 0.11901379 -0.08506964 0.054963753 -0.295843 0.19631194
0.01431662 -0.021427562 -0.22750619 -0.08082443 0.21445554 -0.16928796 0.40413722 -0.00012075891
0.23799549 -0.23017411 -0.2055324 -0.08816296 -0.15172204 0.3760735 -0.15624924 0.30408308
0.3019035 -0.27593255 0.24048185 0.05199939 0.24653956 -0.3118158 -0.07113391 -0.2917481
-0.01793868 0.5797757 0.3560644 0.0586542 -0.0069449 0.020300718 0.1425894 -0.22912489
0.20831542 0.23312111 0.7415676 -0.6448608 0.06109213 -0.18725938 0.48681948 -0.035724454
0.1120492 0.36064982 0.2823591 -0.29957515 0.15394892 0.308487 0.30505192 -0.25004974
0.61607325 0.5266967 0.8498379 -0.35153067 0.3565834 -0.058597438 0.3712303 -0.8771132
-0.13599306 -0.06674043 0.31355038 -0.39827603 0.31308904 0.012867488 0.21254107 0.31233302
-0.08034283 -0.52859336 0.46031195 -0.2726932 0.19758807 0.3447534 -0.064196125 0.4222908
0.07724716 -0.26384765 0.39493993 0.15259969 -0.1955062 0.020045076 0.009067135 0.12546916
-0.01393671 -0.257506 -0.38175783 -0.1489575 -0.1375785 0.10510264 -0.026179442 -0.2732871
0.28283113 -0.15405488 -0.19422412 0.27040407 0.04417986 -0.08458192 0.03556228 0.10238395
-0.48679414 0.430205 0.3134785 -0.024520297 -0.025439737 -0.27666897 0.42930406 0.011987068
00000000: 9d33 163d a3f9 f23e 2973 1abe 9ace 4b3e
00000010: 5cdd 67be 6e65 d1bd 5dcf 953d a001 a3be
00000020: 7d0b d6bd 0b34 e9bd adff a1be 2baf 6b3f
00000030: 3c85 88bc a131 4cbe 1c20 9b3e 4cc8 99be
00000040: 167e 5fbd 2fcd 25be d82f 75bd ff1e a43e
00000050: 35ca ccbd f81d 003e 0992 86be fc23 9e3d
00000060: 0c57 52be 132f dbbd f522 b23e 592b ff3e
00000070: 14cf 97be 3eae f2be 463f c8bd c223 35be
00000080: 4267 e4bd 880d b6bd a2e0 62be 08d2 273e
00000090: 489b 4d3e a0fc 08bd ec6c 41bd 591d bdbe
000000a0: e49c 083e 416a 1c3f cb02 1ebd 3f28 c2bd
000000b0: 32be cd3c 2017 9abe ed50 9abe 05e1 12be
000000c0: f7b8 0bbe 6e31 fa3c 5eae 363e a02b 8b3b
000000d0: 13c0 973d 35b1 873d 7855 34bf 8dad 2d3d
000000e0: fd8b c8bd 32d6 da3e 54df 0b3e 998f 143f
000000f0: e969 a6bd 1f63 f8be d4c1 323f 0fc9 913e
00000100: 4b89 de3e 5d22 543d a99b 1bbd 0eb8 babd
00000110: 6932 933e ff9f 9f3d 098f babd 76cb 363d
00000120: 3fb7 233f ffc1 313e 8872 37be 2811 2bbf
00000130: 7ea2 e4be 5e0a cebc c600 dd3d c73f 90be
00000140: b1d8 b93d 9d8c 873e 5575 95be e0e3 6a3b
00000150: fab3 e4be e26e 3fbf 38ee 193f 4ae6 14bf
00000160: 9900 f7bd b42b afbd cc3f 9abe b718 0dbe
00000170: 7c51 19be 3662 9e3e a144 abbd 3d59 c63d
00000180: bd53 d5bd 358f f2ba 1793 f13d 946d e03d
00000190: 87fa 47be c686 e3be 6c3d 843e 7562 3bbe
000001a0: 87d3 283f 960d 323e ea0f 08be cba3 163d
000001b0: 9c22 38be ed1b 83be 9a50 8c3e 4e5f e8be
000001c0: 8921 3fbe d55f e8bd 513c a0be 81e7 383e
000001d0: 050d c3ba cc13 af3d ae45 f53d 6ede 4f3d
000001e0: 0415 1e3e 430a afbd 8c67 07be b72a e7be
000001f0: 05ed 4dbe 91d1 3b3e 8cfc d0bd b901 d6bd
00000200: 82c1 4fbe 714d dd3e c335 003f 4fe3 97be
00000210: 12ba 253e 15ac 9fbc 1e82 bc3e be2a 373e
00000220: ea5e a13e 04c7 85bf 63ad 363f e095 07bf
00000230: a6cd 813b d249 df3e 3a37 80be 97d1 2b3f
00000240: 60c2 28bd 6cb4 47be 9a00 06be 80bd f33d
00000250: fe38 aebd ac21 613d bc78 97be ff05 493e
00000260: 4290 6a3c db88 afbc 62f7 68be 4787 a5bd
00000270: 3c9a 5b3e d359 2dbe 13eb ce3e f23f fdb8
00000280: 17b5 733e c3b2 6bbe 1677 52be c88e b4bd
00000290: 065d 1bbe b58c c03e cdff 1fbe c7b0 9b3e
000002a0: 1893 9a3e 0847 8dbe e040 763e 50fd 543d
000002b0: de74 7c3e 52a6 9fbe a8ae 91bd 0260 95be
000002c0: 23f4 92bc 2e6c 143f 134e b63e 633f 703d
000002d0: 0b92 e3bb b14d a63c f502 123e b79f 6abe
000002e0: a350 553e 4db7 6e3e 60d7 3d3f 9915 25bf
000002f0: be3b 7a3d ecc0 3fbe 6740 f93e ce53 12bd
00000300: 0d7a e53d 18a7 b83e 5f91 903e ea61 99be
00000310: c9a4 1d3e 02f2 9d3e c42f 9c3e 8506 80be
00000320: fab6 1d3f 98d5 063f fa8e 593f d4fb b3be
00000330: 1992 b63e de03 70bd e611 be3e 7e8a 60bf
00000340: c441 0bbe 35af 88bd ad89 a03e d6ea cbbe
00000350: 354d a03e 28d2 523c 5ea4 593e 1dea 9f3e
00000360: c88a a4bd e551 07bf 02ae eb3e 719e 8bbe
00000370: 8754 4a3e 8583 b03e 4279 83bd 8036 d83e
00000380: c233 9e3d 0a17 87be 9135 ca3e 1843 1c3e
00000390: c732 48be 9235 a43c 528e 143c fd7a 003e
000003a0: cc56 64bc d4d7 83be c375 c3be 5188 18be
000003b0: 61e1 0cbe 0e40 d73d 4576 d6bc 49ec 8bbe
000003c0: 3ecf 903e 90c0 1dbe b0e2 46be 6772 8a3e
000003d0: f1f5 343d 4939 adbd c1a9 113d adae d13d
000003e0: 153d f9be d443 dc3e 4180 a03e cade c8bc
000003f0: ff66 d0bc 8ea7 8dbe becd db3e 6865 443c

weight_hh_l0_reverse f4 [64, 16]
0.010639285 0.09799791 0.04982063 -0.058558892 -0.1666445 -0.021397296 0.008452332 0.14045165
0.17311832 -0.18792449 -0.039870806 0.08949542 -0.14457868 0.07833251 -0.061128817 0.18435967
0.024521353 -0.415715 -0.0828382 -0.0053949594 -0.1637307 -0.05546411 0.10786171 0.06924395
-0.13122074 0.15710399 -0.19364005 0.15723667 -0.30118272 -0.21522506 -0.10035558 0.06502477
-0.03466767 -0.0029105567 0.03341762 0.012249594 -0.035661574 0.006492833 0.03977472 -0.03903623
-0.0155952275 -0.03242437 0.005862158 -0.03463228 -0.032492492 -0.05913677 0.06853502 -0.047244657
-0.09859288 0.08737361 0.05153518 -0.07027231 -0.044016887 -0.03703839 -0.081690006 0.1255229
0.16409402 -0.29927525 -0.03764032 0.08511131 0.15326662 -0.07859697 0.08037111 0.01767698
-0.03580047 -0.03428889 0.045197044 -0.019414866 -0.048682556 0.03873813 -0.026780887 -0.13686034
0.054950166 -0.102420986 -0.039191008 -0.06466893 -0.08757375 -0.18919598 -0.05994971 0.017116357
0.027349148 -0.09320883 0.07418472 -0.11147235 -0.12943304 0.0927285 0.03332387 0.21672417
0.12101615 -0.19450472 -0.102912866 0.12844183 -0.2905508 -0.08418507 0.10975371 -0.023272933
0.27579826 -0.13933975 -0.12650639 0.008801459 0.037981294 0.1776201 -0.18558522 0.38767788
0.07980873 -0.35201052 0.014806682 -0.03446457 -6.887471e-05 -0.05524931 0.1049618 -0.03626898
0.12972291 -0.22148602 -0.37099224 -0.18416022 0.21942703 0.18274651 0.016185794 0.2669111
0.3958516 -0.20801248 -0.21154526 0.027761932 0.042177934 -0.12649043 -0.24808371 0.22865589
0.12847866 -0.18086809 -0.18750322 -0.06920332 0.058923192 -0.16345437 -0.13524947 0.32810646
0.06633471 -0.25387433 -0.31536302 0.22149044 0.05269814 0.07157921 -0.007670574 0.071101405
0.024838263 0.20193088 0.09696475 -0.0321905 0.2266464 0.036387157 -0.3938895 0.21223818
0.28039348 -0.33380777 -0.15509637 -0.27907914 -0.13708015 -0.095565155 0.34093282 0.17408179
0.19288771 0.06499174 0.23587067 -0.11250492 -0.088317916 0.1242077 -0.17065412 0.37999353
0.0626793 -0.27811784 -0.021572493 -0.12627308 -0.078172006 -0.09124145 0.27816433 -0.12144767
0.002682341 -0.21007942 -0.14327078 -0.10328072 0.15911269 0.013185146 -0.1160472 0.31333593
0.101022035 -0.23400295 -0.3260348 0.19839673 0.13312519 -0.31244978 -0.075828284 -0.09007797
0.22108719 0.008913583 -0.066990346 0.04187797 0.2268493 0.20692529 -0.074602105 -0.20427708
-0.1314374 -0.1743834 0.078586 -0.09885109 -0.032504737 0.06305905 -0.2297657 0.049490016
0.14748184 0.14614163 -0.044426434 -0.2533743 0.008114536 -0.07390404 -0.0051591406 0.12001004
0.04848464 0.024237776 0.016980747 0.021786079 -0.17611377 -0.010003405 -0.11886194 0.24498421
-0.11898655 0.022683391 0.02078033 0.156293 -0.035510514 -0.011134954 0.104940906 -0.094664685
-0.09013217 0.028938059 0.0720595 -0.17056368 0.03484845 0.038372416 0.031160474 -0.18730144
-0.039344396 0.3151584 0.13271824 0.0008659776 -0.23631515 -0.14389953 -0.058000192 -0.010622548
0.08440171 -0.066969894 0.006927833 -0.06846866 -0.06637317 0.17686117 0.011282292 0.14320481
00000000: 6550 2e3c 21b3 c83d b810 4c3d 73db 6fbd
00000010: dba4 2abe 6249 afbc a67b 0a3c 8fd2 0f3e
00000020: ee45 313e 476f 40be 924f 23bd 6049 b73d
00000030: 6f0c 14be cc6c a03d 3662 7abd c8c8 3c3e
00000040: 01e1 c83c 99d8 d4be 13a7 a9bd 33c8 b0bb
00000050: 05a9 27be 562e 63bd 9ae6 dc3d c6cf 8d3d
00000060: bb5e 06be dedf 203e 9449 46be a602 213e
00000070: 9f34 9abe f563 5cbe 3a87 cdbd b52b 853d
00000080: b0ff 0dbd 0abf 3ebb eae0 083d 85b2 483c
00000090: df11 12bd d5c1 d43b d1ea 223d 74e4 1fbd
000000a0: 2083 7fbc 6bcf 04bd 5817 c03b 94da 0dbd
000000b0: d916 05bd 6639 72bd 175c 8c3d 9d83 41bd
000000c0: 10eb c9bd eff0 b23d 8e16 533d eeea 8fbd
000000d0: 0d4b 34bd 91b5 17bd 174d a7bd 1389 003e
000000e0: 4308 283e 9b3a 99be bc2c 1abd d74e ae3d
000000f0: edf1 1c3e 73f7 a0bd 9c99 a43d 50cf 903c
00000100: 83a3 12bd 8272 0cbd 8920 393d ed0b 9fbc
00000110: 5c67 47bd e0ab 1e3d 9763 dbbc 1e25 0cbe
00000120: 6d13 613d 18c2 d1bd c086 20bd 2571 84bd
00000130: de59 b3bd 97bc 41be d48d 75bd 9a37 8c3c
00000140: 520b e03c 45e4 bebd 29ee 973d 9e4b e4bd
00000150: 188a 04be 71e8 bd3d 9c7e 083d f1ec 5d3e
00000160: 51d7 f73d 3f2c 47be fbc3 d2bd 4186 033e
00000170: 13c3 94be 3969 acbd 8ec6 e03d e1a6 bebc
00000180: 6e35 8d3e 14af 0ebe e48a 01be ff33 103c
00000190: 4692 1b3d 0be2 353e 0d0a 3ebe b77d c63e
000001a0: c272 a33d b93a b4be ba97 723c b92a 0dbd
000001b0: d470 90b8 1a4d 62bd 36f6 d63d c88e 14bd
000001c0: 15d6 043e 3bcd 62be b2f2 bdbe 7f94 3cbe
000001d0: 7bb1 603e e721 3b3e 1298 843c 92a8 883e
000001e0: 10ad ca3e 3901 55be 529f 58be fe6c e33c
000001f0: c5c2 2c3d b586 01be a809 7ebe c524 6a3e
00000200: e98f 033e 7c35 39be d800 40be 78ba 8dbd
00000210: 7259 713d 9560 27be d67e 0abe 92fd a73e
00000220: 7eda 873d d1fb 81be 4377 a1be 64ce 623e
00000230: 01da 573d 1f98 923d 7059 fbbb 9d9d 913d
00000240: 9d79 cb3c f8c6 4e3e 7495 c63d 30da 03bd
00000250: fe15 683e b30a 153d e2ab c9be f754 593e
00000260: bc8f 8f3e dae8 aabe 95d1 1ebe 76e3 8ebe
00000270: bd5e 0cbe aab7 c3bd bf8e ae3e 7f42 323e
00000280: 5b84 453e 641a 853d 1588 713e fb68 e6bd
00000290: 06e0 b4bd 9b60 fe3d f4bf 2ebe 838e c23e
000002a0: 015e 803d 7665 8ebe ccb8 b0bc bb4d 01be
000002b0: a518 a0bd ccdc babd 8e6b 8e3e 8eb9 f8bd
000002c0: 37ca 2f3b 0f1f 57be 93b5 12be d884 d3bd
000002d0: 70ee 223e 8306 583c 28aa edbd 916d a03e
000002e0: a4e4 ce3d 789e 6fbe 09ee a6be 8328 4b3e
000002f0: f851 083e 6bf9 9fbe dc4b 9bbd cc7a b8bd
00000300: ae64 623e 470a 123c 3c32 89bd 3c88 2b3d
00000310: 2f4b 683e 39e4 533e fdc8 98bd 032e 51be
00000320: 8797 06be 9091 32be b2f1 a03d 7172 cabd
00000330: b023 05bd 1a25 813d b347 6bbe 0bb6 4a3d
00000340: 7b05 173e 27a6 153e 7ef8 35bd 47ba 81be
00000350: d5f2 043c 005b 97bd 020e a9bb d3c7 f53d
00000360: d497 463d 4d8e c63c 351b 8b3c b878 b23c
00000370: 2b57 34be 52e5 23bc e46d f3bd 24dd 7a3e
00000380: 38af f3bd 85d2 b93c 833b aa3c 460b 203e
00000390: 7973 11bd 626f 36bc 42eb d63d 8fdf c1bd
000003a0: 3797 b8bd 820f ed3c ee93 933d 3fa8 2ebe
000003b0: 40bd 0e3d 652c 1d3d 4044 ff3c f3cb 3fbe
000003c0: 9727 21bd 715c a13e 4ae7 073e c602 633a
000003d0: 99fc 71be 665a 13be 9c91 6dbd 320a 2ebc
000003e0: ceda ac3d 8327 89bd e002 e33b 4c39 8cbd
000003f0: a8ee 87bd 181b 353e 5dd9 383c 48a4 123e

bias_ih_l0_reverse f4 [64]
0.20303045 -0.045504905 0.04181225 -0.025757942 0.25677857 -0.19080403 0.033302523 0.2526392
0.3216376 -0.01825847 -0.19547848 0.21586958 0.18342347 -0.09328117 0.21448089 0.114201866
0.088919215 0.4231106 0.036001775 0.0044781733 0.1997583 0.25659773 0.2550516 0.1494533
-0.064741895 0.20210356 0.13743334 -0.013000015 0.27248618 0.024287555 0.23466927 0.16438167
0.12257193 -0.11083977 -0.10832754 0.121203415 0.038788434 -0.051881246 0.06083096 0.13502696
-0.018244471 -0.012236864 0.111822516 -0.17009696 -0.19917317 0.24193376 -0.15194789 -0.10137786
0.34779233 0.29024753 -0.02192092 0.20818175 0.31647587 0.09756281 0.09440588 0.3680835
0.25622824 0.2158465 0.25933972 0.17265584 0.23459174 0.056987725 0.18530326 0.24123095
00000000: 37e7 4f3e 5a63 3abd 5243 2b3d 5202 d3bc
00000010: 7b78 833e 2262 43be 3a68 083d ed59 813e
00000020: afad a43e c992 95bc 832b 48be ea0c 5d3e
00000030: 5dd3 3b3e 330a bfbd e1a0 5b3e abe2 e93d
00000040: 471b b63d f4a1 d83e 9976 133d a4bd 923b
00000050: 718d 4c3e c760 833e 2096 823e 490a 193e
00000060: 6697 84bd 3cf4 4e3e 53bb 0c3e 04fe 54bc
00000070: 4f83 8b3e b2f6 c63c 244d 703e ab53 283e
00000080: fe06 fb3d f6ff e2bd d4da ddbd 7f39 f83d
00000090: 9fe0 1e3d 6e81 54bd e229 793d 8244 0a3e
000000a0: 6e75 95bc 217d 48bc 3403 e53d e62d 2ebe
000000b0: 0df4 4bbe 7cbd 773e 3a98 1bbe 329f cfbd
000000c0: d611 b23e 539b 943e 8093 b3bc 992d 553e
000000d0: 2009 a23e 03cf c73d df57 c13d 7175 bc3e
000000e0: 5930 833e dd06 5d3e 2dc8 843e b1cc 303e
000000f0: d138 703e f66b 693d 23c0 3d3e 3f05 773e
