cours/TP/tp2/checkpoints/best_dungeon_model.pt (torch, 672885 bytes, 15 tensors)

weight f4 [45, 32]
00000000: 0000 0000 0000 0000 0000 0000 0000 0000
00000010: 0000 0000 0000 0000 0000 0000 0000 0000
00000020: 0000 0000 0000 0000 0000 0000 0000 0000
00000030: 0000 0000 0000 0000 0000 0000 0000 0000
00000040: 0000 0000 0000 0000 0000 0000 0000 0000
00000050: 0000 0000 0000 0000 0000 0000 0000 0000
00000060: 0000 0000 0000 0000 0000 0000 0000 0000
00000070: 0000 0000 0000 0000 0000 0000 0000 0000
00000080: abbb 2fb6 d803 e636 8c61 7a3a 86c4 06b6
00000090: 2333 3cbc 0950 43b7 0f95 c035 f106 62b6
000000a0: 5c2e 693a 1459 0b36 cd2c ec34 d436 4eb6
000000b0: 48d8 f234 57b3 bc35 410a bcbb 0b9c 07b7
000000c0: 7136 4037 14b3 d039 597a 0a37 0ea5 3236
000000d0: d729 86ba d518 8eb6 3bbf d5bb 8796 8bb6
000000e0: dc12 edbb c13b df35 de68 69b6 6d1d 5637
000000f0: cba6 40b5 b863 1fb7 bcc7 7a36 d600 8c36
00000100: ddd2 46b8 bf1a f5ba eb20 323e 98d2 9839
00000110: e76c 84bf cb47 fdb9 43fd a039 85c7 6d39
00000120: 44a2 ec3d 6708 7a39 ab50 8a39 d7a2 e638
00000130: 4348 3539 466b a7b9 4955 e7be a8a9 343a
00000140: 1422 c73a ae1f a73d e575 30ba 83a8 d0b9
00000150: 1731 3f3e 5250 323a 1324 7a3f 4bb6 633a
00000160: d566 95bf afd0 c838 9e0e 1b3a 42e4 01ba
00000170: 028f bdb8 c61e 363a 88a4 3439 57ff eb38
00000180: 920a ebb8 077f d33a c697 433d d3d5 9fb8
00000190: ed02 47be b50c 473a dd09 513a 11c1 1f3a
000001a0: 88cf dd3c c0c2 bdb9 746d 3339 bb5c 293a
000001b0: 0958 06b9 37fa 6b38 1046 81bf 3694 50b9
000001c0: cf55 a7ba 7ad8 e4bd 9351 5fba 9333 f1b8
000001d0: b3f7 adbe d371 62b9 3375 0cbe f506 aeb9
000001e0: 9990 87bc 3ca2 1e39 6f5e 0838 e874 b53a
000001f0: fc80 d9b9 ca9d 0b39 e4bf beb8 3826 0ab9
00000200: ebd2 9139 01be 803b a0b3 293d 5048 4439
00000210: 2889 a03e 0afc a0b9 4746 51bb 8e3f 03bb
00000220: 196a ae3d 5c46 6dba 91a6 dd39 7f3d daba
00000230: ddce 523a fb19 0ab9 cd39 c83e d981 47bb
00000240: 4200 86bb 1ec5 f13c 5938 813b cc36 a638
00000250: 02b4 a13d 6917 13bb cce0 e3bd 8edb 56bb
00000260: 196d 44be 3d6d 80b8 b086 01bb a394 7c3b
00000270: 3d96 d1b9 1d85 00bb fed1 543a 07f2 3e3a
00000280: 3bd7 90b9 fb96 24bb d9d5 893d b513 aeb9
00000290: 4f4d 363d 40f9 5c3a 3dde a5b8 05df ca3a
000002a0: dec0 abbd f48d c8b9 15f0 e537 331f ab3a
000002b0: a6a4 93b9 5dfc a539 48bd cdbf ef3a 0b3b
000002c0: 6c7b 323b a372 4bbe 8468 59bb 36fb 7339
000002d0: 460a d1be dbf9 b63a 0ad3 093f 34b6 113b
000002e0: ea04 f6be 9140 02b9 30ca 463a 02a7 31bb
000002f0: 602b 03b9 b188 2f3a 6419 50b9 5442 97b9
00000300: e4f8 f139 087a 853b 1589 68bd f31f a5b9
00000310: 2434 29bf fcb4 cf3a d182 d03a f5d6 4bb9
00000320: 8f89 a53d 6c6e 77b9 12ab bfb9 ddec 2038
00000330: b3e9 4eba 64b0 9839 1455 9fbe a477 03bb
00000340: 7cfc 71bb 1e8f 453b ed87 ac39 1750 4238
00000350: d3a5 0abe 9730 e8ba 3aa0 39be 7f12 18bb
00000360: 75c7 bf3e 3be0 343a 1a4f 43ba abf5 093b
00000370: 5e16 f8b9 5d9f 15ba ff36 43ba d487 45ba
00000380: 2995 28ba acc8 36bb 9304 d23d 8e08 17b8
00000390: 9788 c93e 1e4b 8ab9 54b1 943a 542c 8e3a
000003a0: c26c 40be 6d5c 9339 5adb cf38 66fd 893a
000003b0: 780b d538 404b bc37 c0a2 883e 3bb0 d53a
000003c0: 6287 2b3b 7ca6 87bc af77 d3ba a8ab 3db8
000003d0: 9b35 4d3e c22c b93a 1ed9 4cbf d4ca e03a
000003e0: 1384 8bbb b762 11ba 799f 813a 022d 2abb
000003f0: a45c 7e39 9133 553a f5ca c438 a589 3339
0.0 0.0 0.0 0.0 0.0 0.0 0.0 0.0
0.0 0.0 0.0 0.0 0.0 0.0 0.0 0.0
0.0 0.0 0.0 0.0 0.0 0.0 0.0 0.0
0.0 0.0 0.0 0.0 0.0 0.0 0.0 0.0
-2.618627e-06 6.8549816e-06 0.0009551279 -2.0081948e-06 -0.011486801 -1.164154e-05 1.4348497e-06 -3.3680665e-06
0.0008895153 2.0764464e-06 4.3991022e-07 -3.0728306e-06 4.5233378e-07 1.4059286e-06 -0.005738527 -8.082959e-06
1.1456767e-05 0.00039806275 8.253927e-06 2.6620141e-06 -0.0010235858 -4.2348206e-06 -0.0065230406 -4.1600465e-06
-0.007234914 1.6632185e-06 -3.4780746e-06 1.2762245e-05 -7.176829e-07 -9.500356e-06 3.7369164e-06 4.1724225e-06
-4.740326e-05 -0.0018699988 0.1739537 0.00029148604 -1.0345734 -0.0004830941 0.00030706273 0.00022676408
0.11554387 0.00023844988 0.00026381513 0.00010997586 0.00017288425 -0.00031932647 -0.45182255 0.0006891736
0.0015192651 0.08160339 -0.0006731435 -0.00039798403 0.1867107 0.000680213 0.97711295 0.00086865266
-1.1672007 9.5756135e-05 0.0005914959 -0.00049549725 -9.0388596e-05 0.00069473346 0.0001722743 0.00011253234
-0.00011207642 0.001613588 0.047752164 -7.621539e-05 -0.1943471 0.0007593141 0.0007974187 0.0006094138
0.027076498 -0.0003619399 0.00017111545 0.00064606563 -0.00012812031 5.6261397e-05 -1.0099506 -0.00019891639
-0.0012766662 -0.11174102 -0.00085189304 -0.00011501382 -0.33978042 -0.00021595442 -0.13716583 -0.0003319305
-0.016548442 0.00015128491 3.2512875e-05 0.0013844045 -0.00041485566 0.00013314854 -9.0956484e-05 -0.00013174943
0.000278137 0.0039289 0.04143107 0.00018718955 0.31354642 -0.00030705362 -0.0031932758 -0.0020026895
0.0851633 -0.0009051317 0.00042276506 -0.0016650407 0.0008041689 -0.00013170384 0.39106598 -0.0030442385
-0.004089386 0.029512938 0.0039434847 7.9257035e-05 0.07895662 -0.0022444373 -0.11126861 -0.0032784673
-0.19182242 -6.123863e-05 -0.0019764118 0.0038540743 -0.00039975523 -0.0019610592 0.00081184495 0.00072839897
-0.0002762618 -0.0025114405 0.06730241 -0.0003320255 0.04450732 0.0008429475 -7.909208e-05 0.0015477842
-0.08386396 -0.00038252736 2.7410724e-05 0.0013055563 -0.00028160698 0.00031659278 -1.6073389 0.0021244844
0.002723421 -0.19867949 -0.0033173868 0.00023267869 -0.4082815 0.0013959961 0.53837645 0.0022233846
-0.48050624 -0.00012421819 0.0007583229 -0.00271076 -0.00012509292 0.0006696089 -0.00019845885 -0.00028850383
0.0004615254 0.004073385 -0.056771357 -0.00031495056 -0.66095185 0.0015846784 0.0015908127 -0.00019439666
0.08082878 -0.00023596891 -0.00036557816 3.836757e-05 -0.00078931 0.0002912312 -0.31119597 -0.0020060325
-0.0036924174 0.003014512 0.0003290767 4.6327794e-05 -0.1353982 -0.0017714676 -0.18127528 -0.0023204384
0.3745686 0.0006899868 -0.0007450447 0.002105097 -0.0004731891 -0.0005707646 -0.0007446855 -0.00075351936
-0.0006430918 -0.0027890606 0.10254779 -3.6009173e-05 0.39362022 -0.00026377378 0.0011344352 0.0010846951
-0.18791488 0.00028106887 9.9113866e-05 0.0010527789 0.00010158768 2.2446387e-05 0.26686668 0.0016303131
0.0026173224 -0.016558878 -0.0016133691 -4.522098e-05 0.2003998 0.0014127719 -0.80018795 0.0017150291
-0.004257688 -0.00055460207 0.0009889446 -0.0025966768 0.00024257839 0.0008132989 9.383812e-05 0.00017122047

weight_ih_l0 f4 [128, 32]
00000000: c850 ac31 2799 8a31 33e8 8035 f94d 5230
00000010: fbeb feb3 cdd7 78b1 4fc6 1631 c825 3db2
00000020: 99ea 3e34 79ec 3931 2be7 b1b0 4beb 3bb1
00000030: cb1e a7b0 5555 60b0 51e6 4935 01d3 b1b1
00000040: 261c 26b2 9202 bbb3 09b1 9132 392d 2d30
00000050: 3d7d 8ab5 0b76 ceb1 d7ff c833 65a3 c8b1
00000060: 8bbd 1235 3f2f 5f31 b515 2db0 6090 7c32
00000070: d027 f8af 1cf7 d92f 5f7d deb0 dd8f 9ab0
00000080: 73b3 402e ebcf d2ad 6b7a 7e32 b010 642d
00000090: 9e94 b1b1 ae05 be2e ab87 37ae 2c0e 4dae
000000a0: eb86 8f31 dfc6 62ae 0165 a72c dc1d 0caf
000000b0: 555c aaad cd94 baad 4a6e d6b1 15a3 dfae
000000c0: 423a 352e adc9 ac30 b2ce 8f2f f638 cbad
000000d0: 58e7 9f31 c3d1 b8ae 4997 d3b1 ad40 b8ae
000000e0: 96bb 9eb2 d960 312e 8335 bfae 1145 972e
000000f0: 01c8 b2ae 5e90 a3ae 5fad b7ad 3376 1aae
00000100: aa25 3caf 7f4b e2b0 42f4 be33 9731 242f
00000110: 39b2 2f34 2dd3 21af 1ece 0e2f 8637 2bb0
00000120: 5681 93b1 6afa 5dae 0924 cfad 3c54 a12f
00000130: f7ae 1930 22d5 04af 559f 0935 02b0 c8ad
00000140: 05e4 ae30 e387 a632 2476 1330 f05b 082f
00000150: 1e9e 2b33 6031 58af bd52 3ab4 41e3 022f
00000160: 47c9 03b4 b3fd 372f fe54 b12e f82b b6b0
00000170: 8cc1 06af c33a 25ae 74ce 0a30 ba13 ff2f
00000180: 3fb9 732d c601 b9ae 393f 8031 1dd5 4c2c
00000190: c14a 1532 2be6 292e 2487 86ae abdc 932e
000001a0: d7b8 ccb0 f850 832d a6fa ab2d bb96 bcae
000001b0: 6d82 fdad b198 c8ac f8b2 ab30 8521 122e
000001c0: e195 822e f74d c630 351e caae 5f11 4ead
000001d0: 8dd3 1cb1 73f4 78ad f72d 4f31 dbd0 0f2e
000001e0: e5e0 5231 e8d1 56ac dfa6 88ad 3306 7f2e
000001f0: 9ad9 72ae b575 14ae 6886 b8ad a47f a3ad
00000200: 37f7 bab8 dfe1 0fbb c172 5dbe 084b be38
00000210: 72a2 f63b 1296 69ba cd88 85ba 1f78 8cb9
00000220: f2e2 cd3c 3046 1a39 b592 fd37 97c0 74b9
00000230: 0e37 b939 92de 94b8 47bd 6dbe 89c7 cc39
00000240: 8406 d83a e64f d93c 3e06 9039 2daf 7138
00000250: 70d6 c63c fda6 f239 6ffb 5a3f 89f9 0f3a
00000260: fb2f 243e afd7 81b9 a711 7ab8 4223 29ba
00000270: 9cd5 2939 6ae4 2cb9 c3de a739 65c3 c539
00000280: eb34 2632 8d61 4533 3c2b c036 0746 4630
00000290: eb19 8b35 f4af 0932 1aae 24b0 9ff5 fe31
000002a0: c1a2 68b5 1603 a8b1 59d0 bc30 196a abb2
000002b0: a4d2 b3b1 e64a cdb0 adf9 e6b5 28ce 5032
000002c0: f535 28b3 3acf a2b5 7096 de32 6ce1 61b1
000002d0: 31ae 8ab6 d158 97b2 a150 ad36 8942 5d32
000002e0: 7db1 acb3 f0b8 9432 7d27 ceb1 c935 1232
000002f0: e6d6 07b2 f540 2532 4832 9cb1 b0d5 cfb1
00000300: 9221 b9ae 6ea5 4eb2 0698 1c36 dc8f 0831
00000310: 8e20 c1b5 cccd d932 3065 3832 7a70 ce31
00000320: 6419 67b5 8f1d 9231 b759 8331 1e87 4731
00000330: 74ba 85ae 0f0c 7ab1 c3d4 89b5 1184 5b32
00000340: 21e4 4732 6125 06b5 db9a e6b2 411e 8eb2
00000350: ad98 1e34 000a 0230 36b3 1d35 63a9 7132
00000360: ab7b 89b5 de7e 75b0 2a78 9632 fc64 e8b2
00000370: d89e 8532 7030 c632 53bf 0031 8452 0f31
00000380: 48d0 092a e42d c7ad 9d7f 09b1 23c5 d5ab
00000390: a097 dd30 d3b4 542c fbcc 2c2d 0ef8 c02c
000003a0: 7849 a12f e1a3 032c 0690 842a ac39 e12c
000003b0: 8e5d 2cab b3c7 842a 2206 8f31 5eaa 1f2d
000003c0: 8f99 aa2d 98d7 ddae 296b 86ad 7192 3aab
000003d0: 3f66 f7b0 26f2 bd2c c93a 9ab0 a08a 322d
000003e0: 1059 1731 223c 6aac bc6e 612c f849 5dac
000003f0: 72a8 812c 5988 56aa 32e2 b1aa bd0f 0b2b
5.0150426e-09 4.03374e-09 9.604322e-07 7.650836e-10 -1.1870721e-07 -3.6211418e-09 2.1940598e-09 -1.1009838e-08
1.7780475e-07 2.7055462e-09 -1.2944147e-09 -2.734583e-09 -1.2159601e-09 -8.161199e-10 7.521349e-07 -5.1753664e-09
-9.668872e-09 -8.7083336e-08 1.6960728e-08 6.30013e-10 -1.031825e-06 -6.008809e-09 9.359763e-08 -5.839342e-09
5.466506e-07 3.2477627e-09 -6.296788e-10 1.4701158e-08 -4.5139226e-10 3.9647652e-10 -1.6188259e-09 -1.1245863e-09
4.381513e-11 -2.396657e-11 1.48125805e-08 1.2964005e-11 -5.168274e-09 8.6412086e-11 -4.172988e-11 -4.662419e-11
4.177186e-09 -5.1563084e-11 4.757639e-12 -1.2743534e-10 -1.9367766e-11 -2.1211833e-11 -6.240758e-09 -1.0169835e-10
4.120638e-11 1.2571967e-09 2.6158414e-10 -2.3103724e-11 4.65381e-09 -8.4046124e-11 -6.1581074e-09 -8.37884e-11
-1.8478925e-08 4.033116e-11 -8.69518e-11 6.878954e-11 -8.130031e-11 -7.4380266e-11 -2.0881684e-11 -3.5120528e-11
-1.7111881e-10 -1.6465121e-09 8.891995e-08 1.4933331e-10 1.6362982e-07 -1.471789e-10 1.2988052e-10 -6.228834e-10
-4.292967e-09 -5.0471995e-11 -2.3549178e-11 2.9345582e-10 5.5909716e-10 -1.208105e-10 5.1268336e-07 -2.281553e-11
1.2724973e-09 1.9386738e-08 5.3646176e-10 1.2401791e-10 3.9957847e-08 -1.9662627e-10 -1.73527e-07 1.1904168e-10
-1.227355e-07 1.6733885e-10 8.064126e-11 -1.325474e-09 -1.225599e-10 -3.7568847e-11 5.0497495e-10 4.6398246e-10
1.3854084e-11 -8.413141e-11 3.732478e-09 2.9108445e-12 8.6899385e-09 3.863058e-11 -6.11762e-11 6.7239846e-11
-1.4895488e-09 1.4928933e-11 1.955176e-11 -8.576025e-11 -2.882069e-11 -5.701294e-12 1.2492753e-09 3.3226328e-11
5.9383394e-11 1.4428555e-09 -9.191262e-11 -1.17136014e-11 -2.282124e-09 -1.41514465e-11 3.0148593e-09 3.2699937e-11
3.068686e-09 -3.052775e-12 -1.5535516e-11 5.7985793e-11 -5.52177e-11 -3.375585e-11 -2.0978067e-11 -1.8587638e-11
-8.9152185e-05 -0.0021954698 -0.21625806 9.073882e-05 0.007526689 -0.0008910607 -0.0010187865 -0.00026792378
0.02513263 0.00014712731 3.0228266e-05 -0.00023341399 0.0003532697 -7.098647e-05 -0.23216735 0.00039058577
0.0016481434 0.026527356 0.0002747047 5.7622023e-05 0.024272174 0.00046282253 0.8553991 0.0005492201
0.16033928 -0.00024765494 -5.9621085e-05 -0.0006452092 0.00016196672 -0.00016488289 0.00032018693 0.00037720348
9.674504e-09 4.595636e-08 5.727079e-06 7.2131495e-10 1.036385e-06 8.014457e-09 -5.9910266e-10 7.420297e-09
-8.6663573e-07 -4.8897943e-09 1.3738016e-09 -1.9955268e-08 -5.2335327e-09 -1.4937e-09 -1.7209001e-06 1.2154068e-08
-3.916462e-08 -1.2130251e-06 2.5912613e-08 -3.2869947e-09 -4.132999e-06 -1.7619103e-08 5.165188e-06 1.2879021e-08
-8.041659e-08 1.7313567e-08 -5.9998784e-09 8.510548e-09 -7.9068965e-09 9.619034e-09 -4.545914e-09 -6.0487864e-09
-8.418789e-11 -1.20283925e-08 2.33343e-06 1.987238e-09 -1.4389095e-06 2.535571e-08 1.0733217e-08 6.008176e-09
-8.6091154e-07 4.2525197e-09 3.822801e-09 2.9035117e-09 -6.0812605e-11 -3.6386643e-09 -1.0269217e-06 1.2777506e-08
1.1635195e-08 -4.9973283e-07 -2.6845944e-08 -1.6544734e-08 1.477044e-07 4.7307935e-10 5.8747844e-07 1.406656e-08
-1.0243288e-06 -8.931077e-10 1.7516943e-08 -2.7054277e-08 1.5555472e-08 2.307226e-08 1.8735207e-09 2.0856143e-09
1.2240306e-13 -2.264406e-11 -2.0008664e-09 -1.5189277e-12 1.6122961e-09 3.022739e-12 9.822583e-12 5.484508e-12
2.9337932e-10 1.870719e-12 2.3547847e-13 6.4012875e-12 -6.123651e-13 2.358648e-13 4.162545e-09 9.075933e-12
1.9394956e-11 -1.00882136e-10 -1.5281625e-11 -6.62837e-13 -1.8000675e-09 5.398587e-12 -1.1221682e-09 1.01489095e-11
2.2024018e-09 -3.328678e-12 3.2035893e-12 -3.144705e-12 3.6851017e-12 -1.9054323e-13 -3.159847e-13 4.940456e-13

weight_hh_l0 f4 [128, 32]
00000000: 75c8 4c30 9437 ceae ad2b 8daf 6b30 242e
00000010: b3d7 aa33 3897 a42f fc61 4430 f352 0cae
00000020: afd3 25ac 6701 4eae 79a0 a32f 7559 81af
00000030: 2cb5 79b0 c31b cf2c c61f 082f 5019 28af
00000040: 1cdf 0330 0fc4 8231 ecaa 3daf 3f10 6baf
00000050: c022 4f2e c8fd bdae 0185 212d 8641 2cac
00000060: b079 a4af b627 1b2d c768 ca2f 2730 c8af
00000070: 70cf 9db0 d9ad 5730 2eac 2bb0 718d b1ae
00000080: 45ce 242c 171d a1a8 2315 21ad a1cb c62b
00000090: 95e3 9531 fb82 452d 81e1 4c2c 1dbd 87aa
000000a0: 14dc 6029 7251 44ab dff6 882b 96e5 e62c
000000b0: 7964 04ad 3c07 5baa e6ee 562c af5e 842b
000000c0: 5720 822b 592f caab 9f00 312c 3184 642a
000000d0: 55c1 76aa 09a9 002c 78c7 9f29 2d05 2ca9
000000e0: e003 f1ab 0d12 302c 9673 da2d d6b4 4d2c
000000f0: 0e82 78ad 67a2 d02c 9c4c 762c dc0f 43aa
00000100: eabb 31ac cae6 ecad a631 dbac 90d6 422d
00000110: 66c3 f7b2 f913 41af 98a7 95ae 4a17 88ac
00000120: 8bd5 652c 01a8 862e 70a0 24ae 1949 7bae
00000130: 3b10 31af a218 95ad 7a72 782d dc93 bead
00000140: b5e9 9cae b8cf a9b0 8908 f5ad b1b5 712e
00000150: 0541 d7ad f6c4 f62c c279 922b 399e 9bac
00000160: 5a8a 2f2e f484 572d 93c7 00af 4290 0cae
00000170: 7b69 b52f 31d4 23af 27b8 7f2e 3471 612f
00000180: eab9 592d a2d6 b72b 06ca 422b 9545 b7aa
00000190: c669 862f 046e 4e2d dacd 6fac 5ea0 1a2a
000001a0: 2ccb fa2a b44d 1b2a ff85 8cab b2b1 192c
000001b0: f1d8 a1aa decf ff2a 1bcf f12b 3633 d2a7
000001c0: 3c5c 8fac 66e6 fead 6158 012b 1ba8 062c
000001d0: 42b1 542b 3f20 a12a d29d 352a c12e ce29
000001e0: 222a 5d2a c240 822b 00ff 142e 25e2 f9ab
000001f0: 4789 232c a76a 032d aa12 252c f5ab 842b
00000200: 27e1 b9b8 a701 6ab7 0a30 a037 d5bf 44b7
00000210: 7a26 5d3e edd6 56b9 59c5 0cb9 a514 0a36
00000220: 002a 5eb7 700e 83b7 aa3c 84b8 8462 d7b7
00000230: cc42 31b9 8651 8ab7 6aa5 72b7 4f8d efb6
00000240: 918a 4ab8 0857 41b9 e84a 22b8 6bb8 76b8
00000250: 9b7f e4b7 4dde d4b6 2cd2 5db6 95ce e5b5
00000260: 064b 4db8 0aba 97b7 98cd aab7 bfb7 1cb9
00000270: 5b48 72b9 46f8 e5b8 2575 96b7 181b d7b7
00000280: 00f4 6331 1a72 0b30 bc48 f8b0 c18b e42f
00000290: 6a7b b033 12f1 a7b0 2550 d331 9247 53af
000002a0: dc44 632f 8163 d82f fe94 c530 09c7 d92f
000002b0: d3e6 fbb0 f9b9 08b0 544f 1d30 d458 1e30
000002c0: 3cd0 d02e 7ae6 6f32 fdd5 dfaf 165b 242f
000002d0: 50ce b62f b1fe 4f2f 7a60 e82e 8c88 13ae
000002e0: ed11 fa2f af4b 1330 6fa2 13b1 85d9 27b1
000002f0: b59a 26b2 8858 0031 55c0 b630 847f 4930
00000300: 1152 b4af 447a 17b0 fea7 f030 daed 96ae
00000310: 00b3 fdb4 d9a5 2eb1 5f91 6330 3b9f 972d
00000320: a09f 8faf d2bb 2bae 97cf c8ae e976 f7af
00000330: 3163 a22f f55e 9aae 13da 49af bd0b a6af
00000340: 6656 1230 1066 3730 7c34 012f 631d a930
00000350: 8347 1e30 dbb9 85af 535d 222d de46 962e
00000360: be01 502f a2f5 bdae 8223 3130 bf23 2231
00000370: 0e89 8031 c657 3130 7d8e 82b0 0b3b 58ae
00000380: 75a3 b02b 5018 2faa c5fb a1ab ac7f 662a
00000390: 1e4f 282f e986 112c fbde d72c 6a46 a1a7
000003a0: 3524 60a9 a275 a1aa 5c8a bf2a f4f2 eb29
000003b0: aa4a 9bab b0c9 4aaa 7120 74aa 70b7 0baa
000003c0: 3770 472b eca2 002d 4f21 15aa cfa8 17ab
000003d0: 0854 2c2a fdb7 572a 67a4 3a29 5ebb 06a8
000003e0: b1fd 27ab 3ed1 342a 9dc6 8c2c 536c d8ab
000003f0: 6fd1 67ac 7c6f af2b 27ac 44ab ddbb 1629
7.4499634e-10 -9.377668e-11 -2.5678784e-10 3.7332287e-11 7.955477e-08 2.9938874e-10 7.144363e-10 -3.190599e-11
-2.3565418e-12 -4.6840223e-11 2.976355e-10 -2.3528526e-10 -9.0843133e-10 5.886376e-12 1.2380416e-10 -1.5288504e-10
4.797458e-10 3.8057872e-09 -1.7250174e-10 -2.1378897e-10 4.7097215e-11 -8.6398055e-11 9.181323e-12 -2.4479043e-12
-2.991789e-10 8.8195475e-12 3.6818035e-10 -3.6414002e-10 -1.1482211e-09 7.8463597e-10 -6.245412e-10 -8.074153e-11
2.3420304e-12 -1.7887206e-14 -9.156484e-12 1.4125265e-12 4.362344e-09 1.1227237e-11 2.9115323e-12 -2.411204e-13
4.992888e-14 -6.9746216e-13 9.731902e-13 6.5624823e-12 -7.525641e-12 -1.9453617e-13 3.0543844e-12 9.405444e-13
9.246032e-13 -1.4366105e-12 2.5153558e-12 2.0296331e-13 -2.1916265e-13 1.8283727e-12 7.095621e-14 -3.819616e-14
-1.7125155e-12 2.5021124e-12 2.4835061e-11 2.9232636e-12 -1.4126046e-11 5.929746e-12 3.500123e-12 -1.7324982e-13
-2.5257526e-12 -2.6932585e-11 -6.2298664e-12 1.1075266e-11 -2.8843441e-08 -1.7560343e-10 -6.805506e-11 -3.867938e-12
3.2661397e-12 6.123458e-11 -3.743178e-11 -5.7135716e-11 -1.6103822e-10 -1.6950278e-11 1.4122587e-11 -2.1666162e-11
-7.1355734e-11 -1.2355406e-09 -2.7857066e-11 5.495843e-11 -2.4471545e-11 7.0136076e-12 1.0407719e-12 -4.422931e-12
3.9913274e-11 1.2250857e-11 -1.1712435e-10 -3.196044e-11 3.2998657e-10 -1.4900149e-10 5.8143847e-11 2.0503849e-10
1.2376303e-11 1.3062505e-12 6.920301e-13 -3.2555612e-13 2.4449615e-10 1.1734173e-11 -3.4078213e-12 1.3733586e-13
4.45499e-13 1.3793724e-13 -9.98479e-13 2.1841248e-12 -2.8749878e-13 4.5441336e-13 1.7181563e-12 -5.834223e-15
-4.0745445e-12 -2.8978774e-11 4.5952657e-13 1.9135863e-12 7.5563525e-13 2.862172e-13 1.6130784e-13 9.156348e-14
1.9643361e-13 9.25503e-13 3.387779e-11 -1.7755282e-12 2.3239897e-12 7.4701694e-12 2.345827e-12 9.426892e-13
-8.863425e-05 -1.3947872e-05 1.9095856e-05 -1.1727175e-05 0.21596709 -0.00020488696 -0.00013424958 2.057562e-06
-1.324201e-05 -1.562314e-05 -6.30555e-05 -2.5675872e-05 -0.00016904919 -1.6488844e-05 -1.44628375e-05 -7.1392055e-06
-4.8289603e-05 -0.00018438336 -3.869357e-05 -5.8822723e-05 -2.7239139e-05 -6.3439716e-06 -3.3053902e-06 -1.7121953e-06
-4.894568e-05 -1.8087234e-05 -2.0361316e-05 -0.0001494577 -0.00023105873 -0.000109658155 -1.7935943e-05 -2.5642614e-05
3.3171546e-09 5.0730053e-10 -1.8065047e-09 4.157226e-10 8.2180875e-08 -1.2219366e-09 6.1500196e-09 -1.9215765e-10
2.0669993e-10 3.9360873e-10 1.4375983e-09 3.9613493e-10 -1.8328258e-09 -4.9740795e-10 5.7229e-10 5.76063e-10
9.495735e-11 1.3964035e-08 -4.0715512e-10 1.4948073e-10 3.32522e-10 1.8917025e-10 1.0567276e-10 -3.354521e-11
4.5487472e-10 5.358584e-10 -2.1483648e-09 -2.4425344e-09 -9.697648e-09 1.8676776e-09 1.3296907e-09 7.3304585e-10
-3.280012e-10 -5.510723e-10 1.7510045e-09 -6.863461e-11 -4.7255162e-07 -2.5414606e-09 8.2788704e-10 1.7237425e-11
-2.612497e-10 -3.9047716e-11 -9.1318224e-11 -4.501353e-10 2.9538108e-10 -7.019977e-11 -1.8358319e-10 -3.0203565e-10
5.323727e-10 6.672005e-10 1.1751128e-10 1.2304721e-09 5.758169e-10 -2.4324617e-10 9.229356e-12 6.833799e-11
1.8918109e-10 -8.638358e-11 6.4442685e-10 2.3594422e-09 3.7408716e-09 6.451696e-10 -9.499243e-10 -4.9165155e-11
1.2550921e-12 -1.5551557e-13 -1.1509618e-12 2.0472399e-13 1.5307619e-10 2.068063e-12 6.1354233e-12 -4.476282e-15
-4.9769396e-14 -2.868097e-13 3.4024422e-13 1.0478242e-13 -1.1034136e-12 -1.8011178e-13 -2.1682809e-13 -1.2409323e-13
7.085473e-13 7.3121335e-12 -1.3245415e-13 -5.3880246e-13 1.5305823e-13 1.915967e-13 4.1442893e-14 -7.479123e-15
-5.9682386e-13 1.6059807e-13 4.00109e-12 -1.5377789e-12 -3.2943333e-12 1.2465441e-12 -6.98721e-13 3.3469636e-14

bias_ih_l0 f4 [128]
00000000: fe57 9335 3ea4 07b2 bc01 37b5 874c 83b2
00000010: 28ec ce3e 0820 c036 b35c 88b5 2fac e7b1
00000020: d5f8 3fb1 7195 aeb1 ccec 8934 58ae 79b2
00000030: 2b2b d0b5 d694 49b2 0510 51b3 298a 6eb1
00000040: 98b0 ef34 5d66 9db7 fbd4 5bb2 3702 12b4
00000050: d6fc 3bb2 1fe4 02b3 f3af 7cae 6ada 08b0
00000060: b823 02b3 1a19 c5b1 d2f0 1737 a87b 96b5
00000070: 2f27 b8b6 2e7e 8f36 4f50 64b3 e965 fab2
00000080: dd94 5e35 9fee 37b2 e2cd 96b4 fab4 49b2
00000090: b2d9 fe3e acef f535 0d59 7fb5 02ab 93b0
000000a0: 18de 88b1 7109 c2b0 f00f 2d34 c517 06b3
000000b0: c590 9cb4 0ed4 e5b1 559a 41b3 925a 7eb1
000000c0: 6fcd 5134 d91d 07b8 835f dcb2 681e 83b3
000000d0: 91ec 44b2 f9d7 58b2 e64a 7d2f b772 bcaf
000000e0: 54f9 64b3 7ac7 e5b1 f3b2 6e36 ef17 27b4
000000f0: c780 0ab6 5acd 9d35 c0c9 33b3 8d08 37b3
00000100: bd71 98b7 f6f0 eeb7 4038 98b8 fe71 28b6
00000110: 6b24 213d 58ac b537 07d7 d4b9 a324 8bb6
00000120: 272f 93b7 862a c7b7 051f 1836 7b13 0eb8
00000130: 90a7 70b9 a2b2 cfb7 6125 1f36 4061 1db8
00000140: af44 0f38 7751 42ba c36b eab7 12c2 91b8
00000150: d788 63b7 9db4 bc36 5078 27b6 4b69 84b6
00000160: ffb0 48b8 b9d9 d3b7 7b41 8938 6061 6eb9
00000170: 6a98 9bb9 e684 2038 9376 82b8 66f8 45b8
00000180: bfa3 8e35 cd70 09b2 3f4e 38b5 8392 84b2
00000190: 49ef 2cbe 83dc bd36 edd2 87b5 a1a4 f1b1
000001a0: 7f22 3fb1 6cb3 aeb1 b402 8834 fcf1 76b2
000001b0: 0c2e d3b5 b046 4ab2 4a87 51b3 db9e 71b1
000001c0: 266c ec34 5e37 9cb7 4e75 59b2 0e40 16b4
000001d0: bd63 3cb2 2e9c 05b3 4422 70ae ace8 0bb0
000001e0: 37bc fdb2 9434 c5b1 b284 1437 2692 98b5
000001f0: 5880 bbb6 19bc 8e36 1fc1 62b3 cb61 f8b2
1.0977963e-06 -7.895379e-09 -6.8175336e-07 -1.5285208e-08 0.40414548 5.725775e-06 -1.0159769e-06 -6.74256e-09
-2.7935603e-09 -5.081056e-09 2.569053e-07 -1.4533349e-08 -1.5509771e-06 -1.1733581e-08 -4.8676174e-08 -3.4712093e-09
4.4645708e-07 -1.8763525e-05 -1.2795904e-08 -1.3598115e-07 -1.0942321e-08 -3.047546e-08 -5.745444e-11 -4.9786897e-10
-3.030047e-08 -5.7363083e-09 9.056372e-06 -1.121186e-06 -5.488189e-06 4.2764214e-06 -5.3158427e-08 -2.9150174e-08
8.291807e-07 -1.0706258e-08 -2.8089477e-07 -1.1740889e-08 0.49775463 1.8323676e-06 -9.512449e-07 -1.0744261e-09
-3.98337e-09 -1.4118041e-09 1.6117679e-07 -3.1220925e-08 -2.9162598e-07 -6.688885e-09 -4.507668e-08 -3.7013348e-09
1.9539378e-07 -3.2214306e-05 -2.5654805e-08 -6.105694e-08 -1.14624905e-08 -1.2621961e-08 2.3036825e-10 -3.427851e-10
-5.331215e-08 -6.687455e-09 3.5568926e-06 -1.5561794e-07 -2.063856e-06 1.1757177e-06 -4.1860176e-08 -4.2615785e-08
-1.8172776e-05 -2.8484017e-05 -7.258402e-05 -2.5100303e-06 0.03934137 2.1657135e-05 -0.00040596 -4.146788e-06
-1.7545723e-05 -2.374245e-05 2.266782e-06 -3.387358e-05 -0.00022950605 -2.4759505e-05 2.3714604e-06 -3.7522288e-05
3.4157823e-05 -0.0007412652 -2.7945154e-05 -6.950287e-05 -1.3562115e-05 5.6238628e-06 -2.495497e-06 -3.9461643e-06
-4.7848556e-05 -2.5254545e-05 6.544866e-05 -0.00022733724 -0.0002967746 3.8270744e-05 -6.220969e-05 -4.71998e-05
1.0627481e-06 -8.0000975e-09 -6.8659205e-07 -1.5433448e-08 -0.16888155 5.65831e-06 -1.0119671e-06 -7.0327393e-09
-2.7813767e-09 -5.0844644e-09 2.533394e-07 -1.43741055e-08 -1.5734126e-06 -1.177402e-08 -4.878465e-08 -3.5160415e-09
4.4037114e-07 -1.8622432e-05 -1.2657734e-08 -1.3993142e-07 -1.0965718e-08 -3.110852e-08 -5.4600116e-11 -5.089855e-10
-2.9538667e-08 -5.739432e-09 8.852383e-06 -1.1367417e-06 -5.5879755e-06 4.2538272e-06 -5.2795368e-08 -2.8915471e-08

bias_hh_l0 f4 [128]
00000000: fe57 9335 3ea4 07b2 bc01 37b5 874c 83b2
00000010: 2bec ce3e 0820 c036 b35c 88b5 2fac e7b1
00000020: d5f8 3fb1 7195 aeb1 ccec 8934 58ae 79b2
00000030: 2b2b d0b5 d694 49b2 0510 51b3 298a 6eb1
00000040: 98b0 ef34 5d66 9db7 fbd4 5bb2 3702 12b4
00000050: d6fc 3bb2 1fe4 02b3 f3af 7cae 6ada 08b0
00000060: b823 02b3 1a19 c5b1 d2f0 1737 a87b 96b5
00000070: 2f27 b8b6 2e7e 8f36 4f50 64b3 e965 fab2
00000080: dd94 5e35 9fee 37b2 e2cd 96b4 fab4 49b2
00000090: b2d9 fe3e acef f535 0d59 7fb5 02ab 93b0
000000a0: 18de 88b1 7109 c2b0 f00f 2d34 c517 06b3
000000b0: c590 9cb4 0ed4 e5b1 559a 41b3 925a 7eb1
000000c0: 6fcd 5134 d91d 07b8 835f dcb2 681e 83b3
000000d0: 91ec 44b2 f9d7 58b2 e64a 7d2f b772 bcaf
000000e0: 54f9 64b3 7ac7 e5b1 f3b2 6e36 ef17 27b4
000000f0: c780 0ab6 5acd 9d35 c0c9 33b3 8d08 37b3
00000100: bd71 98b7 f6f0 eeb7 4038 98b8 fe71 28b6
00000110: 6dd1 f73c 58ac b537 07d7 d4b9 a324 8bb6
00000120: 272f 93b7 862a c7b7 051f 1836 7b13 0eb8
00000130: 90a7 70b9 a2b2 cfb7 6125 1f36 4061 1db8
00000140: af44 0f38 7751 42ba c36b eab7 12c2 91b8
00000150: d788 63b7 9db4 bc36 5078 27b6 4b69 84b6
00000160: ffb0 48b8 b9d9 d3b7 7b41 8938 6061 6eb9
00000170: 6a98 9bb9 e684 2038 9376 82b8 66f8 45b8
00000180: bfa3 8e35 cd70 09b2 3f4e 38b5 8392 84b2
00000190: 47ef 2cbe 83dc bd36 edd2 87b5 a1a4 f1b1
000001a0: 7f22 3fb1 6cb3 aeb1 b402 8834 fcf1 76b2
000001b0: 0c2e d3b5 b046 4ab2 4a87 51b3 db9e 71b1
000001c0: 266c ec34 5e37 9cb7 4e75 59b2 0e40 16b4
000001d0: bd63 3cb2 2e9c 05b3 4422 70ae ace8 0bb0
000001e0: 37bc fdb2 9434 c5b1 b284 1437 2692 98b5
000001f0: 5880 bbb6 19bc 8e36 1fc1 62b3 cb61 f8b2
1.0977963e-06 -7.895379e-09 -6.8175336e-07 -1.5285208e-08 0.40414557 5.725775e-06 -1.0159769e-06 -6.74256e-09
-2.7935603e-09 -5.081056e-09 2.569053e-07 -1.4533349e-08 -1.5509771e-06 -1.1733581e-08 -4.8676174e-08 -3.4712093e-09
4.4645708e-07 -1.8763525e-05 -1.2795904e-08 -1.3598115e-07 -1.0942321e-08 -3.047546e-08 -5.745444e-11 -4.9786897e-10
-3.030047e-08 -5.7363083e-09 9.056372e-06 -1.121186e-06 -5.488189e-06 4.2764214e-06 -5.3158427e-08 -2.9150174e-08
8.291807e-07 -1.0706258e-08 -2.8089477e-07 -1.1740889e-08 0.49775463 1.8323676e-06 -9.512449e-07 -1.0744261e-09
-3.98337e-09 -1.4118041e-09 1.6117679e-07 -3.1220925e-08 -2.9162598e-07 -6.688885e-09 -4.507668e-08 -3.7013348e-09
1.9539378e-07 -3.2214306e-05 -2.5654805e-08 -6.105694e-08 -1.14624905e-08 -1.2621961e-08 2.3036825e-10 -3.427851e-10
-5.331215e-08 -6.687455e-09 3.5568926e-06 -1.5561794e-07 -2.063856e-06 1.1757177e-06 -4.1860176e-08 -4.2615785e-08
-1.8172776e-05 -2.8484017e-05 -7.258402e-05 -2.5100303e-06 0.03025123 2.1657135e-05 -0.00040596 -4.146788e-06
-1.7545723e-05 -2.374245e-05 2.266782e-06 -3.387358e-05 -0.00022950605 -2.4759505e-05 2.3714604e-06 -3.7522288e-05
3.4157823e-05 -0.0007412652 -2.7945154e-05 -6.950287e-05 -1.3562115e-05 5.6238628e-06 -2.495497e-06 -3.9461643e-06
-4.7848556e-05 -2.5254545e-05 6.544866e-05 -0.00022733724 -0.0002967746 3.8270744e-05 -6.220969e-05 -4.71998e-05
1.0627481e-06 -8.0000975e-09 -6.8659205e-07 -1.5433448e-08 -0.16888152 5.65831e-06 -1.0119671e-06 -7.0327393e-09
-2.7813767e-09 -5.0844644e-09 2.533394e-07 -1.43741055e-08 -1.5734126e-06 -1.177402e-08 -4.878465e-08 -3.5160415e-09
4.4037114e-07 -1.8622432e-05 -1.2657734e-08 -1.3993142e-07 -1.0965718e-08 -3.110852e-08 -5.4600116e-11 -5.089855e-10
-2.9538667e-08 -5.739432e-09 8.852383e-06 -1.1367417e-06 -5.5879755e-06 4.2538272e-06 -5.2795368e-08 -2.8915471e-08

weight_ih_l0_reverse f4 [128, 32]
00000000: 39eb e230 3e94 8632 323f 45b5 f3d1 f4b0
00000010: bc2c adb5 09ca 5731 24c5 7e31 484c 4f31
00000020: 53a8 0b35 1429 8f2d aebb e7b0 479b d531
00000030: a860 89b1 c4f0 e430 9005 66b5 ee71 7131
00000040: 9918 71b2 1b58 8434 1bf5 58b2 73cd fd30
00000050: ac2c 69b5 be29 beb1 4843 d735 da27 8731
00000060: 9bb4 b635 fa52 b231 0257 70b0 793b 2db0
00000070: 9814 36b1 3aca 1530 2705 13b1 2729 feb0
00000080: 94ed 96b1 33db 15b2 4f46 1bb2 f5d0 0531
00000090: 459b 9533 7308 a0b2 d122 bfb1 9d7d a9b1
000000a0: 6099 24b4 c40b 2b32 6e99 0e32 0378 a62e
000000b0: e9c9 c130 38c0 3eb1 6f08 d7b5 0fe5 4b31
000000c0: 4ee0 9131 655c 78b4 30da 82b2 0a34 1fb2
000000d0: 8f3d a833 7d78 bc31 d4b3 1f36 bcda cf31
000000e0: f88d 2d33 26cc 17b2 3bfe cb31 31e5 88b2
000000f0: 2ea3 2532 8c55 2d32 9dae 6e31 f104 23af
00000100: 68ca 15b0 4592 8d31 bdd9 cc33 24c6 9330
00000110: 0735 b332 625d 32ac b4aa deb0 e58a d330
00000120: a89e a531 508c 0d30 fcf5 6630 a506 0c31
00000130: 1d22 3730 7f3c a8b0 2884 eab4 ae50 c02e
00000140: b40f 83b1 1a24 c7af 3b6f fe30 2023 09b1
00000150: 5ef0 b4b3 6bea d8af 6e45 3b35 cdd1 cbae
00000160: b3b0 dc33 84a1 0830 0142 0c30 d432 6d30
00000170: 1f47 23b1 4b5c b430 c8f2 3230 e18b ef2f
00000180: cd30 47b1 19a1 75b2 4394 12b5 3414 2932
00000190: c880 d0b5 1def 5eb3 0548 2333 855a 57b2
000001a0: 6443 d8b4 4e6b 0e32 adb7 b4b1 5793 d9b2
000001b0: 9dbd a9b0 6f56 fab1 d9ef cbb6 5f25 a532
000001c0: 1f5e 5f32 d5de 2db5 65f7 c630 ac8f 8b30
000001d0: d46e 13b6 b88c da32 967f 8136 b296 bd32
000001e0: b0dc 9434 464c 00b3 8512 0432 4276 04b3
000001f0: 3eb6 ea32 921a fb2f 2279 6f31 3741 05b0
00000200: ef56 19ac 3b2f 3a2e 45f1 9731 2e7e 232e
00000210: ba27 02b2 e592 35af 885b 072f 24e8 2aae
00000220: 7951 89b1 656a b92e e4ac a1ad d5c0 a0ae
00000230: 6de3 1f2e 3d9d 1aae c90b 5b32 288d fc2c
00000240: bd85 7aae 7717 7831 e8ef 372e ec9e 5529
00000250: 0356 31b1 70e5 baad 26c1 1432 a214 57ad
00000260: 1bf5 a1b1 4f21 b3ad 8bba b62e fa6b 8e2e
00000270: 1e97 152e f5ce 952e 1e60 0a2e 0614 e02d
00000280: d4f6 5333 e783 7a34 7d6b 13b7 c6a1 0cb3
00000290: fc7b 47b7 3b69 fb33 131b 6334 e9a1 1533
000002a0: 1056 8236 37c1 84b1 828d 2db3 9c23 a133
000002b0: 50c4 bdb3 72f3 0233 fcc4 6fb7 044b beb1
000002c0: 6064 7db4 cf57 3235 d86e 51b3 7c2e 3d32
000002d0: d59a 4fb7 1f5e 8db3 f426 c637 546c 3fb3
000002e0: f332 a737 4850 7f33 093b 40b1 c773 c133
000002f0: 5873 0633 be28 21b2 375a afb3 929f b3b3
00000300: 14da 8db9 0443 9bba de3e 3b3d dcac 88b8
00000310: f383 24bf 0c3f f639 6a6f 8b39 7b03 913a
00000320: 4405 49be d9fb ccb9 a0a4 e638 f877 853a
00000330: ba27 80b8 d363 4938 0300 a6bf 83b5 a73a
00000340: dc60 bf3a 5a8b df3c 23e9 2fbb 4ce3 00b9
00000350: 2b8f 023e 6d9f 4f3a 93e0 db3f e688 a53a
00000360: 4968 bfbd 5567 b7b8 080f 293a 9e63 a2ba
00000370: 9ea0 aeb9 7fb9 243a 1ebd 23b8 4ec2 8bb8
00000380: 2d71 cdaf f533 b230 754b 7332 cb92 4b2f
00000390: e6af c5b2 83ae 002f dd53 80b0 9739 1430
000003a0: 2a81 b2b1 6864 1930 0c17 c82f a362 a5ae
000003b0: baa3 a02f 3b5c 75af db80 ebb3 d585 57af
000003c0: 7671 c4b0 b571 a2b2 9bd0 5cb0 7c2b a7af
000003d0: 1c26 8b32 9224 062f f23f 4934 2189 abaf
000003e0: acd8 cd32 4945 96ad b328 472f c3f4 0930
000003f0: c24e 682f ab1e 0230 5199 9c2f 4169 a22f
1.6510519e-09 1.5667066e-08 -7.348018e-07 -1.7813008e-09 -1.2902524e-06 3.1401461e-09 3.7073926e-09 3.0165825e-09
5.202648e-07 1.627546e-11 -1.6860804e-09 6.216769e-09 -3.9982133e-09 1.6657613e-09 -8.568977e-07 3.5134877e-09
-1.4033639e-08 2.465102e-07 -1.2628585e-08 1.8466565e-09 -8.686427e-07 -5.5344733e-09 1.603833e-06 3.9335477e-09
1.361262e-06 5.189915e-09 -8.7435137e-10 -6.302155e-10 -2.6496192e-09 5.4493265e-10 -2.1394244e-09 -1.8492629e-09
-4.392584e-09 -8.722782e-09 -9.038174e-09 1.9472826e-09 6.9665965e-08 -1.8630294e-08 -5.56279e-09 -4.932828e-09
-1.5329488e-07 9.956185e-09 8.300374e-09 7.5701244e-11 1.4099985e-09 -2.7757903e-09 -1.6021203e-06 2.9670593e-09
4.245556e-09 -2.3130413e-07 -1.5233212e-08 -9.26685e-09 7.834307e-08 5.485218e-09 2.379752e-06 6.04936e-09
4.040882e-08 -8.835775e-09 5.9369802e-09 -1.5936708e-08 9.641367e-09 1.00893764e-08 3.4732814e-09 -1.4826519e-10
-5.449352e-10 4.120269e-09 9.5390966e-08 1.0751973e-09 2.0862457e-08 -2.534716e-12 -1.6201143e-09 1.5391747e-09
4.820169e-09 5.14949e-10 8.402308e-10 2.0376458e-09 6.662349e-10 -1.2240803e-09 -4.3682053e-07 8.745481e-11
-3.814387e-09 -3.622354e-10 1.8512546e-09 -1.995609e-09 -8.425626e-08 -3.9456735e-10 6.976396e-07 -9.268639e-11
1.027669e-07 4.970604e-10 5.10255e-10 8.629233e-10 -2.376005e-09 1.3122955e-09 6.5101036e-10 4.3573237e-10
-2.8986051e-09 -1.4297506e-08 -5.460499e-07 9.841688e-09 -1.5534688e-06 -5.1905875e-08 3.8016896e-08 -1.2535229e-08
-4.0282168e-07 8.289886e-09 -5.259571e-09 -2.5329127e-08 -1.235026e-09 -7.285784e-09 -6.0777934e-06 1.9225523e-08
1.3001709e-08 -6.4771785e-07 1.447671e-09 1.0154415e-09 -2.1969217e-06 2.5442532e-08 3.8593525e-06 2.2071024e-08
2.772772e-07 -2.9871693e-08 7.687622e-09 -3.08412e-08 2.732406e-08 4.5675513e-10 3.4847933e-09 -4.8477794e-10
-2.1790866e-12 4.2333453e-11 4.4221076e-09 3.717398e-11 -7.576029e-09 -1.6514042e-10 1.2310697e-10 -3.8859707e-11
-3.996487e-09 8.4317255e-11 -1.838036e-11 -7.3102115e-11 3.635441e-11 -3.51552e-11 1.2750157e-08 7.1779423e-12
-5.6962202e-11 3.6102088e-09 4.1822462e-11 4.7433344e-14 -2.5805782e-09 -2.1247643e-11 8.658651e-09 -1.22259165e-11
-4.713582e-09 -2.0364736e-11 8.3095385e-11 6.476593e-11 3.4012897e-11 6.8124985e-11 3.1462936e-11 2.5474744e-11
4.9351755e-08 2.333105e-07 -8.786909e-06 -3.2743422e-08 -1.1890192e-05 1.17072396e-07 2.1150872e-07 3.4839022e-08
3.884321e-06 -3.8636716e-09 -4.0408402e-08 7.503624e-08 -8.8367074e-08 3.0489396e-08 -1.4291374e-05 -5.538256e-09
-2.3598977e-07 6.6437946e-07 -4.8762416e-08 1.1011817e-08 -1.2374211e-05 -6.582945e-08 2.3621578e-05 -4.4569177e-08
1.9931676e-05 5.944483e-08 -2.7973235e-09 9.0083226e-08 3.130421e-08 -9.380697e-09 -8.1654825e-08 -8.364363e-08
-0.00027056097 -0.0011845534 0.04571425 -6.517183e-05 -0.6426384 0.0004696775 0.00026595156 0.0011063659
-0.19630915 -0.00039097553 0.000109979184 0.0010182848 -6.110915e-05 4.8015103e-05 -1.2968754 0.0012795184
0.001460101 0.027288128 -0.0026841841 -0.00012291706 0.12749927 0.00079201796 1.717791 0.00126293
-0.09346063 -8.745367e-05 0.0006449078 -0.0012389307 -0.00033307535 0.00062837446 -3.9038357e-05 -6.6642286e-05
-3.73697e-10 1.2965972e-09 1.41616185e-08 1.8514894e-10 -2.3013808e-08 1.1703531e-10 -9.337061e-10 5.3923926e-10
-5.195166e-09 5.580376e-10 3.6396164e-10 -7.520853e-11 2.9220165e-10 -2.2315387e-10 -1.0966479e-07 -1.9601683e-10
-1.4293124e-09 -1.891099e-08 -8.033198e-10 -3.040802e-10 1.619906e-08 1.2200221e-10 1.8742847e-07 -3.1202155e-10
2.3963672e-08 -1.7083794e-11 1.8113404e-10 5.0188137e-10 2.1128257e-10 4.7337306e-10 2.8485173e-10 2.9542416e-10

weight_hh_l0_reverse f4 [128, 32]
00000000: 9b1d ce30 2062 91af 9415 a3af ed62 76b1
00000010: fe17 252f b6fa d331 11fd 1534 d546 c32e
00000020: 8b58 87af d2c9 4eb4 b3aa 85b0 e5f6 d0b0
00000030: 9467 c330 4fd9 4fb1 f1af 0ab0 e00c 01b1
00000040: 355e 2531 c2b6 afb0 f58e f52f acfa 50b0
00000050: 485e e830 9a0e 6230 7c32 89b0 aba2 80b0
00000060: 3814 0335 cf49 5f30 0fd0 5bb3 4c62 3530
00000070: 2fe3 0db0 8982 08b1 d788 35b1 d828 0b31
00000080: 7721 d12f 17d1 f430 09f8 d5b0 b85e e831
00000090: ef62 00ae 5f4e 72af 199c 17b5 cf06 e5af
000000a0: a8eb 89b1 329b 83b4 f5ee f2b0 3abc 4ab0
000000b0: 0b37 c430 a2bb 23b2 0ae6 4db0 63f0 6bb1
000000c0: af8e 0831 7590 e8b0 b378 c6b0 1798 0cb1
000000d0: edd5 3ab1 d00e eab1 a34d 82b1 1c7a dfb0
000000e0: dc5d 3433 93e6 3332 a4f8 22b5 a78c 282f
000000f0: 3ae2 65b0 4090 60b1 2798 0c31 d53a 242f
00000100: 48c6 feae c883 31ae ef88 3b30 148a c2b0
00000110: e986 262f 6545 f72f 77bb a9b3 2d93 182f
00000120: b699 2930 1b76 c433 e0eb 272f 338e 1ab0
00000130: 5d67 abae f582 4cb0 5cfa 112f 1c6a f0ae
00000140: 9929 0b2f 0241 58b0 5124 5baf 835b 382f
00000150: e145 b930 beac 8230 b65e 2eaf 35b3 e6af
00000160: 89df fc33 1cc3 b4af d5ea 2133 6700 a02e
00000170: b52c 39b0 3365 78b0 7467 b82f a6c6 1e2f
00000180: f82e 1a32 1884 c131 a808 d330 e15b 6db2
00000190: f880 1731 5179 a132 46f6 94b4 16c1 2931
000001a0: aaec bc31 2de1 43b6 02c3 59b1 9be4 50b2
000001b0: 6e6e 5331 089c 0db3 70ae 5fb0 a59e 02b2
000001c0: 49d2 9b31 991b 80b2 f39f 9a31 0ba2 57b1
000001d0: 8b98 a431 d7ff c231 0fa2 c0b0 a6c6 f0b0
000001e0: 340e 9534 5e22 90b2 e921 8fb5 25fe bf30
000001f0: e768 d4af bb9e d8b1 cb3c 9fb2 883f 5e32
00000200: b3b7 a32d 84ae 1fad 3068 70ac 63d3 d0ae
00000210: 24c2 26ac 77d6 982e 7b81 ab30 a2d8 e129
00000220: 224c 80ae 404a 0db1 7251 33ae 1dd8 0dae
00000230: 8291 2f2d 3eb1 1faf e741 17ad 8409 d6ac
00000240: a615 792e 50e1 1aae 6aac 7b2d 7825 e52b
00000250: 5722 542f 50a5 382e 56a9 49ae bb23 15ad
00000260: f81c 34b2 95d7 e42e 9938 5731 48fd ce2c
00000270: acac d1ac 0cd1 92ae 1a66 a9ae bf49 2f2e
00000280: a0a3 6232 7f59 6131 1790 88b0 1a52 25b3
00000290: ca5e af30 a100 9f33 b7c5 d235 2161 f830
000002a0: ceb5 69b1 f19e a3b5 ac28 46b2 8730 92b2
000002b0: 61e5 6332 2d99 f7b2 4bdd 7fb1 da82 26b2
000002c0: 9d88 9c32 c7a6 aeb2 27a1 0b32 dd0e ebb1
000002d0: 787d dc31 f410 9632 c786 0cb2 6769 1ab2
000002e0: 89dd 1f37 add1 fbb1 2235 06b6 6970 1632
000002f0: 2c8a 5cb1 44db abb2 5fe8 08b3 b9f1 e032
00000300: 0a15 423a a58b 35b9 9b19 64b9 ad83 8e39
00000310: f99d cfb8 c810 d73a f131 ee3e 526c 1eb7
00000320: b352 91ba cd3d 313f 631a 0fb7 a074 4fb9
00000330: ece2 44b9 65a3 58ba d6fb 6039 be21 edba
00000340: 7df8 bdba 8d94 8739 4bcf 5bb7 700c d238
00000350: 1843 61bb ab24 1f37 28af 7ab9 0d64 9f38
00000360: c2a8 443f 1200 75bb 6cb0 063e 6ac0 483a
00000370: 3065 8e39 3cf9 af39 6ae8 b9b8 9e68 44ba
00000380: 19fe 4c2d f032 642f 5f03 682d ed8c bdaf
00000390: 67d6 4e2d ed60 96ae b40f 4bb3 39b4 46ab
000003a0: 4c05 262f bfee 0333 7ef2 b02d 77d1 8e2f
000003b0: 80e2 a8ae 3992 ac2f ec4d a4ae 598f 8fae
000003c0: 9610 902b efaf feae 35a2 b2ad b9d9 27ae
000003d0: 4705 502e 5c6f 7b2f 94fc e22e 3517 0f2e
000003e0: cc42 35b3 a82e 95b0 ca6f 80b2 2d60 2a2e
000003f0: 0ca0 60af b696 942e aa90 cc2e 64fd 042f
1.4996887e-09 -2.6445068e-10 -2.966486e-10 -3.5853944e-09 1.5015186e-10 6.1694108e-09 1.3968771e-07 8.8801556e-11
-2.461927e-10 -1.9258667e-07 -9.725539e-10 -1.5204163e-09 1.4217556e-09 -3.024599e-09 -5.0454135e-10 -1.877929e-09
2.406421e-09 -1.2784869e-09 4.4666817e-10 -7.6026185e-10 1.6907018e-09 8.223907e-10 -9.98241e-10 -9.359459e-10
4.8830725e-07 8.1231816e-10 -5.117914e-08 6.5987105e-10 -5.161835e-10 -1.9864805e-09 -2.641675e-09 2.025038e-09
3.8040657e-10 1.7812763e-09 -1.5568286e-09 6.762857e-09 -2.91917e-11 -2.2037615e-10 -5.6479035e-07 -4.1659695e-10
-4.014016e-09 -2.451357e-07 -1.7675733e-09 -7.375466e-10 1.4276521e-09 -9.5305115e-09 -7.490547e-10 -3.4333645e-09
1.987171e-09 -1.6921279e-09 -1.4440701e-09 -2.0459134e-09 -2.7188165e-09 -6.8119803e-09 -3.7923242e-09 -1.6260091e-09
4.199488e-08 1.0471598e-08 -6.071152e-07 1.5329481e-10 -8.36312e-10 -3.2678287e-09 2.045917e-09 1.4936614e-10
-1.15858045e-10 -4.0362186e-11 6.82248e-10 -1.4154602e-09 1.5145542e-10 4.4978346e-10 -7.9037754e-08 1.3876607e-10
6.170028e-10 9.1484445e-08 1.5272361e-10 -5.622695e-10 -7.794541e-11 -7.440087e-10 1.3276619e-10 -1.0932785e-10
1.2656755e-10 -7.8672724e-10 -1.9930836e-10 1.6767214e-10 1.3480382e-09 9.507841e-10 -1.5858856e-10 -4.196409e-10
1.1775325e-07 -3.2880443e-10 3.7699312e-08 7.276029e-11 -6.736614e-10 -9.0365687e-10 3.3542913e-10 1.444059e-10
8.974659e-09 5.6320566e-09 1.5354731e-09 -1.38161065e-08 2.2046702e-09 1.8798035e-08 -2.7746336e-07 2.4702493e-09
5.4984257e-09 -2.9188334e-06 -3.1688505e-09 -1.2159172e-08 3.0767313e-09 -3.297103e-08 -8.137482e-10 -7.6030675e-09
4.5350004e-09 -1.4913711e-08 4.500174e-09 -3.1378729e-09 4.7903703e-09 5.6752287e-09 -1.4015898e-09 -1.7518758e-09
2.7763747e-07 -1.6779435e-08 -1.0664199e-06 1.3969311e-09 -3.8637113e-10 -6.304473e-09 -1.8537682e-08 1.2936546e-08
1.8612533e-11 -9.076854e-12 -3.4163887e-12 -9.496295e-11 -2.3697789e-12 6.950256e-11 1.2478688e-09 1.0029587e-13
-5.83429e-11 -2.0560407e-09 -4.0772226e-11 -3.2251635e-11 9.9799075e-12 -1.4523935e-10 -8.5979895e-12 -6.0833023e-12
5.6635273e-11 -3.5215664e-11 1.4305982e-11 1.6281828e-12 1.9293488e-10 4.1983583e-11 -4.585251e-11 -8.477603e-12
-1.0483966e-08 1.0406535e-10 3.131879e-09 5.882992e-12 -5.9593077e-12 -6.6764455e-11 -7.703367e-11 3.9855893e-11
1.3192135e-08 3.2792682e-09 -9.936255e-10 -3.8491727e-08 1.2759866e-09 7.404129e-08 1.5703762e-06 1.8071981e-09
-3.4009306e-09 -1.2190704e-06 -1.1534365e-08 -1.7018705e-08 1.3265294e-08 -2.882424e-08 -3.7233174e-09 -9.692224e-09
1.8222915e-08 -2.0332108e-08 8.127507e-09 -6.84109e-09 6.417107e-09 1.7470008e-08 -8.179717e-09 -8.9879455e-09
9.528719e-06 -7.328899e-09 -1.9998483e-06 8.756708e-09 -3.2092755e-09 -2.000673e-08 -3.1876308e-08 2.6186955e-08
0.0007403648 -0.00017313527 -0.00021753313 0.00027182457 -9.899954e-05 0.00164082 0.46522477 -9.442754e-06
-0.0011087268 0.69234926 -8.529608e-06 -0.00019784505 -0.00018776552 -0.0008264094 0.00021456121 -0.0018091721
-0.0014493611 0.00025859885 -1.3101681e-05 0.00010015897 -0.0034372266 9.485676e-06 -0.00023907109 7.600347e-05
0.76820004 -0.0037384075 0.13153237 0.00076580665 0.0002715974 0.00033564295 -8.864778e-05 -0.0007492396
1.16524785e-11 2.0754576e-10 1.3188422e-11 -3.4479034e-10 1.1757351e-11 -6.838428e-11 -4.7278903e-08 -7.059384e-13
1.5099494e-10 3.0717953e-08 2.0116572e-11 2.5978483e-10 -7.67999e-11 3.1390515e-10 -7.471698e-11 -6.528351e-11
1.0236419e-12 -1.1581835e-10 -2.0308292e-11 -3.816478e-11 4.729841e-11 2.286788e-10 1.0322157e-10 3.2535048e-11
-4.2203098e-08 -1.0854437e-09 -1.4951997e-08 3.8738946e-11 -2.0429541e-10 6.7570324e-11 9.3025435e-11 1.2095352e-10

bias_ih_l0_reverse f4 [128]
00000000: 924a c3b5 34aa cdb6 0496 16b6 a144 81b7
00000010: 1a70 7bb3 1b28 c6b7 6276 efbe 47f1 0bb5
00000020: caa7 12b7 f823 f4bd d29a 8db5 8e78 51b6
00000030: c490 12b6 0cff acb7 1185 09b5 4bcc 40b7
00000040: 998b a2b5 a981 2535 b711 59b5 e5eb ebb5
00000050: dafd d6b7 d1a7 47b7 c0b3 3db6 2b8c b1b5
00000060: c237 d03e 4e8c c4b8 e36c 8c3d 6e4a a5b4
00000070: 9312 d4b5 6e93 b5b6 5e0e 5fb5 d902 0db6
00000080: 8ea9 5bb4 086f 83b6 8c26 beb5 83fc ecb6
00000090: 72a5 41b3 581d a5b6 8ed9 5c3f f18b cdb4
000000a0: fbcb 9fb6 ff6b f53e 9694 15b5 17e8 aeb5
000000b0: 4618 76b5 5df2 48b7 2017 d4b4 00b5 d2b6
000000c0: 8474 bab5 6aa7 8834 0c73 04b5 708c 76b5
000000d0: 0d00 62b7 2737 03b7 8c4f e2b5 ff94 1cb5
000000e0: 07d7 3b3e 52cd 8fb8 f253 253d c9f4 bcb3
000000f0: e0a0 90b5 d2d9 1cb6 24db a3b4 2eda 84b5
00000100: 3a17 42b9 5188 48b9 d339 afb8 11c9 2b38
00000110: 574b e036 1fb5 28ba a879 533c d82a 91b8
00000120: 2354 22b9 4c5d 173d e846 36b7 a5a1 0f38
00000130: 1c00 f4b8 4255 c6b8 c28d 00b8 1269 c138
00000140: f712 abb7 5792 10b8 e2cd c6b8 96f9 e137
00000150: a015 38b8 4bbd 8ab9 9de2 78b8 ec48 a737
00000160: ee4a 9c3d 0b0f 2c39 94ac 05bc b0ee eeb8
00000170: c928 8cb8 eacb 3938 a80f 8e38 7dbb e9b8
00000180: ee80 c3b5 07c8 ceb6 80fc 17b6 295e 81b7
00000190: e558 7cb3 6c24 c6b7 817c 5e3f 7491 0cb5
000001a0: 70ae 13b7 edc0 313f f312 8fb5 3a3f 52b6
000001b0: 8595 14b6 b1c2 adb7 ad05 0eb5 3e5c 41b7
000001c0: b17c a4b5 c6ae 2435 9e1f 5ab5 3377 eeb5
000001d0: 4211 d8b7 c238 48b7 4798 3eb6 220b b2b5
000001e0: edeb 213f fbe6 c3b8 9aac 883d 0279 a7b4
000001f0: c2ac d4b5 4e3d b6b6 827b 5fb5 9d64 0eb6
-1.4550335e-06 -6.1292903e-06 -2.2439062e-06 -1.5409956e-05 -5.8542447e-08 -2.3622115e-05 -0.46770006 -5.213264e-07
-8.741345e-06 -0.11920923 -1.0550377e-06 -3.12136e-06 -2.183996e-06 -2.0622763e-05 -5.1230114e-07 -1.14916575e-05
-1.2110569e-06 6.165597e-07 -8.086458e-07 -1.7577519e-06 -2.5628997e-05 -1.1900397e-05 -2.8267823e-06 -1.3228322e-06
0.4066754 -9.372142e-05 0.06856706 -3.07878e-07 -1.5800637e-06 -5.4113834e-06 -8.309488e-07 -2.1012295e-06
-2.0457648e-07 -3.91703e-06 -1.4167322e-06 -7.0627443e-06 -4.5086786e-08 -4.9207993e-06 0.8626946 -3.8286046e-07
-4.7623157e-06 0.47933957 -5.5723046e-07 -1.3031557e-06 -9.1677464e-07 -1.1977359e-05 -3.9504903e-07 -6.279559e-06
-1.389199e-06 2.5453784e-07 -4.934125e-07 -9.1846505e-07 -1.34706615e-05 -7.82105e-06 -1.6861463e-06 -5.8331347e-07
0.18343745 -6.857015e-05 0.04036326 -8.7989584e-08 -1.0775657e-06 -2.33726e-06 -3.0520562e-07 -9.898265e-07
-0.00018509934 -0.00019124268 -8.355421e-05 4.0956835e-05 6.684491e-06 -0.00064356806 0.012907423 -6.922119e-05
-0.00015480867 0.03695421 -1.08645545e-05 3.42444e-05 -0.00011634847 -9.457256e-05 -3.06496e-05 9.222528e-05
-2.039362e-05 -3.4468565e-05 -9.4797244e-05 2.6938313e-05 -4.388916e-05 -0.00026462445 -5.9338858e-05 1.9941908e-05
0.07631479 0.00016408802 -0.008158822 -0.000113931834 -6.683317e-05 4.4297347e-05 6.774004e-05 -0.00011145228
-1.4566156e-06 -6.1625647e-06 -2.2647728e-06 -1.5421845e-05 -5.875417e-08 -2.36204e-05 0.8690873 -5.2365726e-07
-8.802497e-06 0.69435006 -1.0659845e-06 -3.1329241e-06 -2.214075e-06 -2.0713867e-05 -5.290738e-07 -1.1525173e-05
-1.2255242e-06 6.134909e-07 -8.125734e-07 -1.7767073e-06 -2.5757243e-05 -1.1934144e-05 -2.8400843e-06 -1.3265274e-06
0.6325062 -9.341348e-05 0.06673546 -3.119422e-07 -1.584551e-06 -5.4311595e-06 -8.32537e-07 -2.1218214e-06

bias_hh_l0_reverse f4 [128]
00000000: 924a c3b5 34aa cdb6 0496 16b6 a144 81b7
00000010: 1a70 7bb3 1b28 c6b7 2c7f efbe 47f1 0bb5
00000020: caa7 12b7 3622 f4bd d29a 8db5 8e78 51b6
00000030: c490 12b6 0cff acb7 1185 09b5 4bcc 40b7
00000040: 998b a2b5 a981 2535 b711 59b5 e5eb ebb5
00000050: dafd d6b7 d1a7 47b7 c0b3 3db6 2b8c b1b5
00000060: c237 d03e 4e8c c4b8 e36c 8c3d 6e4a a5b4
00000070: 9312 d4b5 6e93 b5b6 5e0e 5fb5 d902 0db6
00000080: 8ea9 5bb4 086f 83b6 8c26 beb5 83fc ecb6
00000090: 72a5 41b3 581d a5b6 56d2 5c3f f18b cdb4
000000a0: fbcb 9fb6 f36e f53e 9694 15b5 17e8 aeb5
000000b0: 4618 76b5 5df2 48b7 2017 d4b4 00b5 d2b6
000000c0: 8474 bab5 6aa7 8834 0c73 04b5 708c 76b5
000000d0: 0d00 62b7 2737 03b7 8c4f e2b5 ff94 1cb5
000000e0: cad7 3b3e 52cd 8fb8 f253 253d c9f4 bcb3
000000f0: e0a0 90b5 d2d9 1cb6 24db a3b4 2eda 84b5
00000100: 3a17 42b9 5188 48b9 d339 afb8 11c9 2b38
00000110: 574b e036 1fb5 28ba c98d 503b d82a 91b8
00000120: 2354 22b9 cde0 213d e846 36b7 a5a1 0f38
00000130: 1c00 f4b8 4255 c6b8 c28d 00b8 1269 c138
00000140: f712 abb7 5792 10b8 e2cd c6b8 96f9 e137
00000150: 5e1a 38b8 4bbd 8ab9 9de2 78b8 ec48 a737
00000160: a566 9d3d 0b0f 2c39 bb08 07bc b0ee eeb8
00000170: c928 8cb8 eacb 3938 a80f 8e38 7dbb e9b8
00000180: ee80 c3b5 07c8 ceb6 80fc 17b6 295e 81b7
00000190: e558 7cb3 6c24 c6b7 817c 5e3f 7491 0cb5
000001a0: 70ae 13b7 edc0 313f f312 8fb5 3a3f 52b6
000001b0: 8595 14b6 b1c2 adb7 ad05 0eb5 3e5c 41b7
000001c0: b17c a4b5 c6ae 2435 9e1f 5ab5 3377 eeb5
000001d0: 4211 d8b7 c238 48b7 4798 3eb6 220b b2b5
000001e0: edeb 213f fbe6 c3b8 9aac 883d 0279 a7b4
000001f0: c2ac d4b5 4e3d b6b6 827b 5fb5 9d64 0eb6
-1.4550335e-06 -6.1292903e-06 -2.2439062e-06 -1.5409956e-05 -5.8542447e-08 -2.3622115e-05 -0.46776712 -5.213264e-07
-8.741345e-06 -0.11920588 -1.0550377e-06 -3.12136e-06 -2.183996e-06 -2.0622763e-05 -5.1230114e-07 -1.14916575e-05
-1.2110569e-06 6.165597e-07 -8.086458e-07 -1.7577519e-06 -2.5628997e-05 -1.1900397e-05 -2.8267823e-06 -1.3228322e-06
0.4066754 -9.372142e-05 0.06856706 -3.07878e-07 -1.5800637e-06 -5.4113834e-06 -8.309488e-07 -2.1012295e-06
-2.0457648e-07 -3.91703e-06 -1.4167322e-06 -7.0627443e-06 -4.5086786e-08 -4.9207993e-06 0.8625845 -3.8286046e-07
-4.7623157e-06 0.4793621 -5.5723046e-07 -1.3031557e-06 -9.1677464e-07 -1.1977359e-05 -3.9504903e-07 -6.279559e-06
-1.389199e-06 2.5453784e-07 -4.934125e-07 -9.1846505e-07 -1.34706615e-05 -7.82105e-06 -1.6861463e-06 -5.8331347e-07
0.18344036 -6.857015e-05 0.04036326 -8.7989584e-08 -1.0775657e-06 -2.33726e-06 -3.0520562e-07 -9.898265e-07
-0.00018509934 -0.00019124268 -8.355421e-05 4.0956835e-05 6.684491e-06 -0.00064356806 0.0031822792 -6.922119e-05
-0.00015480867 0.039521027 -1.08645545e-05 3.42444e-05 -0.00011634847 -9.457256e-05 -3.06496e-05 9.222528e-05
-2.039362e-05 -3.4468565e-05 -9.4797244e-05 2.6938313e-05 -4.3893575e-05 -0.00026462445 -5.9338858e-05 1.9941908e-05
0.076855935 0.00016408802 -0.008241828 -0.000113931834 -6.683317e-05 4.4297347e-05 6.774004e-05 -0.00011145228
-1.4566156e-06 -6.1625647e-06 -2.2647728e-06 -1.5421845e-05 -5.875417e-08 -2.36204e-05 0.8690873 -5.2365726e-07
-8.802497e-06 0.69435006 -1.0659845e-06 -3.1329241e-06 -2.214075e-06 -2.0713867e-05 -5.290738e-07 -1.1525173e-05
-1.2255242e-06 6.134909e-07 -8.125734e-07 -1.7767073e-06 -2.5757243e-05 -1.1934144e-05 -2.8400843e-06 -1.3265274e-06
0.6325062 -9.341348e-05 0.06673546 -3.119422e-07 -1.584551e-06 -5.4311595e-06 -8.32537e-07 -2.1218214e-06
