cours/TP/tp2/checkpoints/best_model.pt (torch, 5878 bytes, 7 tensors)

weight f4 [8, 8]
0	0x80000004	-6e-45
1	0x00000000	0.0
2	0x80000002	-3e-45
3	0x80000000	-0.0
4	0x00000004	6e-45
5	0x00000004	6e-45
6	0x80000004	-6e-45
7	0x80000002	-3e-45
8	0x3cd37df9	0.025816904
9	0x3e225bab	0.15855281
10	0x3dd787cd	0.10523949
11	0x3decf7bb	0.11570688
12	0x3d22f8fb	0.039788228
13	0xbd34ff46	-0.04418876
14	0x3d3ab3dc	0.045581684
15	0xbcdf3cd1	-0.02725068
16	0x39e1e805	0.00043088212
17	0xbddeac07	-0.10872655
18	0xbda26874	-0.07930079
19	0xbd731152	-0.05934269
20	0x3a045a65	0.000504887
21	0x3db5c385	0.08875183
22	0xbc32ca35	-0.010912468
23	0x3db91192	0.090365544
24	0x3c5b9569	0.013402321
25	0xbe3e725a	-0.18598309
26	0xbd89f591	-0.06736291
27	0xbd968678	-0.07349867
28	0x3c62d78b	0.013845335
29	0x3d97260e	0.07380305
30	0xbd693e59	-0.056944225
31	0x3c74a226	0.014931237
32	0xbdad0bcb	-0.08449515
33	0xbdf40980	-0.119158745
34	0xbde29e98	-0.110654056
35	0xbd87a816	-0.06623857
36	0x3c11149e	0.008855013
37	0x3d927a93	0.071522854
38	0xbbdd1d5a	-0.0067478837
39	0x3d6b9ce6	0.057522677
40	0x3b03d21b	0.0020114246
41	0xbdc84631	-0.09779013
42	0xbde1a96c	-0.11018643
43	0xbd57052f	-0.052495178
44	0x3cb66068	0.022262767
45	0x3d448fc1	0.047988657
46	0xbca039c2	-0.019558791
47	0x3d81dd25	0.06341008
48	0x3b06bc40	0.0020558983
49	0x3e1f1bb9	0.15537919
50	0x3d90cbe3	0.07070138
51	0x3d8c54ec	0.06852135
52	0x3cdc2396	0.026872437
53	0xbcffd4bd	-0.031229371
54	0x3d862c31	0.065513976
55	0xbd86b4a5	-0.06577424
56	0xbc02ae50	-0.00797613
57	0xbdce7682	-0.10081197
58	0xbdd660de	-0.10467695
59	0xbdc2c1ef	-0.09509646
60	0x3d08b5dd	0.033376563
61	0x3d86b6a9	0.065778084
62	0xbd24b765	-0.04021396
63	0x3ce5f232	0.02806959

bias f4 [8]
0	0x80000004	-6e-45
1	0xb1e46154	-6.6467383e-09
2	0x322f0ab2	1.01887725e-08
3	0x322d833c	1.0099765e-08
4	0x31151ac9	2.169758e-09
5	0xb22d2b4a	-1.0079768e-08
6	0x32573c43	1.2528349e-08
7	0x31fa1f63	7.279526e-09

weight f4 [8]
0	0x80000004	-6e-45
1	0x3ed35e6b	0.41282973
2	0xbea3af9a	-0.3196991
3	0x3eb8807a	0.3603552
4	0x3e9ad154	0.3023783
5	0x3e8d562f	0.27604815
6	0x3ea893ca	0.32925254
7	0x3e4e88bf	0.20169352

bias f4 [8]
0	0x80000004	-6e-45
1	0x3e620660	0.22072744
2	0x3e4d803e	0.20068452
3	0x3e89f0dc	0.26941574
4	0x3e8b21a2	0.27174097
5	0x3e574ecb	0.21026151
6	0x3e1de1a3	0.15418105
7	0x3e0aa943	0.1354113

running_mean f4 [8]
0	0x80000005	-7e-45
1	0x3bbd390a	0.005774622
2	0xbb8d6408	-0.004314903
3	0xbc224a3c	-0.009905394
4	0xbbc83a00	-0.0061104298
5	0xbb9c9778	-0.0047787987
6	0x3c150a98	0.009096764
7	0xbb9a7cb6	-0.0047145737

running_var f4 [8]
0	0x00000004	6e-45
1	0x3d92cfd7	0.071685486
2	0x3d58359b	0.052785497
3	0x3d526329	0.051364098
4	0x3d376980	0.044778347
5	0x3d4222c2	0.04739643
6	0x3d4e0942	0.050301798
7	0x3d20b8ed	0.03923886

weight f4 [1, 8]
0	0x80000004	-6e-45
1	0x3eee5a37	0.46553203
2	0x3ec1bff5	0.37841764
3	0xbee63d41	-0.44968608
4	0xbecf0013	-0.40429744
5	0xbeb0243a	-0.3440264
6	0x3eb9a957	0.3626201
7	0xbe7734f0	-0.24141288
