cours/TP/tp2/checkpoints/best_model.pt (torch, 5878 bytes, 7 tensors)

weight f4 [8, 8]
00000000: 0f40 26bb 7924 91bd 4add 7ebd 6291 a6bd
00000010: 1276 433b 8f87 813c 2ffc 09bd 597f d3b9
00000020: ba53 5f3c d8b7 a03d df32 483d 479c b93d
00000030: a3d9 6d3c 2985 9cbc 1f98 bc3c 83e7 24bd
00000040: 0aae 1e3c 6560 2fbe 144c 59be 3fba 5cbe
00000050: 2359 81bd 38e1 283e 4daf ebbc e69a 8b3c
00000060: 63db 38bd 79d1 edbd d855 91bd 5129 c1bd
00000070: daa9 6bbd c15a 423d ae69 d9bc 4243 883d
00000080: fac1 b9ba 716e 9abd bbd1 91bd 6ee9 afbd
00000090: ca94 843d a99f 7d3b 7d5a efbc dc95 5bbb
000000a0: 9605 22bd d920 7bbd 9d88 8ebd 3353 d2bd
000000b0: 9658 903b d68f 493d b8f1 6dbb cbae 0b3d
000000c0: 935e b8bc 5022 473e f67c e43d d4bb 203e
000000d0: 914d 8b3c 04b3 38bd 06b9 c83c bc8a 26bd
000000e0: fe99 f4bc 3be4 ecbd 374c dabd 286b 43be
000000f0: f59a bebd 4e2a d03d 893e 553c cf50 7b3b
-0.0025367772 -0.07087035 -0.062222756 -0.08133198 0.0029825014 0.01581171 -0.033687767 -0.00040339938
0.013630802 0.078475654 0.04887664 0.09063011 0.014517221 -0.019106464 0.023021756 -0.04025985
0.009685049 -0.17126615 -0.21220428 -0.21555422 -0.063158296 0.16492164 -0.028770113 0.017041635
-0.0451311 -0.11612219 -0.070964515 -0.094317086 -0.05753503 0.04744983 -0.02653965 0.066534534
-0.0014172189 -0.07540596 -0.07120081 -0.08589445 0.06473692 0.0038699901 -0.029217953 -0.0033506071
-0.03955611 -0.061310623 -0.06959651 -0.10269775 0.0044050915 0.04920944 -0.0036307406 0.034102242
-0.022506034 0.19446683 0.11156647 0.1569665 0.01700476 -0.045092598 0.024502289 -0.04065965
-0.029858585 -0.11566969 -0.10659068 -0.19083846 -0.093068995 0.10164319 0.013015398 0.0038347726

bias f4 [8]
00000000: 0e51 2a32 4ac6 8ab0 6009 c6b2 2c4b 6bb1
00000010: 1b72 a431 d28e 83b2 d2d7 feaf 32cc 70b1
9.913732e-09 -1.0097179e-09 -2.3054497e-08 -3.423973e-09 4.7860005e-09 -1.5315354e-08 -4.635568e-10 -3.5040668e-09

weight f4 [8]
00000000: 966a 1abe f901 3c3e 69df d23e 6a2e 82be
00000010: 2359 82be f23e 703e b0e0 ba3e 9568 a03e
-0.15079722 0.18360128 0.41186073 -0.25426036 -0.2545863 0.23461512 0.36499548 0.3132979

bias f4 [8]
00000000: 1ddd cd3d e0a5 fb3d aaca 7b3e f27b 173e
00000010: 3e4e 203e 9cbd 193e 8328 6e3e a420 383e
0.1005194 0.122874975 0.24589029 0.14793375 0.15654847 0.15013736 0.23257641 0.17981201

running_mean f4 [8]
00000000: 802a 153a b0f9 9dbb 1cf1 fc3a e15b 1e3c
00000010: 22c2 efb9 9f9f b83b 3da7 b5bb a667 703b
0.0005690232 -0.004821025 0.001929793 0.00966546 -0.00045730273 0.0056342627 -0.005543618 0.0036682873

running_var f4 [8]
00000000: 875f 513c ea82 db3c 4301 ee3d 0943 603d
00000010: e6d0 933c 0ef7 3c3d 1ddb d43d 3c18 a43d
0.012779123 0.026795823 0.116213344 0.05475143 0.018043946 0.046134047 0.10393355 0.08012435

weight f4 [1, 8]
00000000: 7c56 383e 21f3 5f3e e38b f3be 74ba 953e
00000010: 9dab 983e febf 8ebe b883 dc3e ce5e b9be
0.18001741 0.2187009 -0.47567663 0.29243815 0.2981843 -0.27880853 0.43069243 -0.36205143
