cours/TP/tp2/checkpoints/best_dungeon_model.pt (torch, 32941 bytes, 15 tensors)

weight f4 [45, 4]
0	0x00000000	0.0
1	0x00000000	0.0
2	0x00000000	0.0
3	0x00000000	0.0
4	0x3dc1dd4a	0.09466036
5	0xbd988750	-0.07447684
6	0x3c61eb4b	0.013789008
7	0x3df9d0fa	0.12198062
8	0x3fb9a8b2	1.4504607
9	0xbf8418c2	-1.0320055
10	0x3f44467a	0.7667004
11	0x4023bd0d	2.5584137
12	0x3f826b37	1.0188969
13	0x3e28eac5	0.16495807
14	0xbf875806	-1.0573738
15	0x3fa391c8	1.2778864
16	0xbdaf5aae	-0.08562218
17	0x3c044bbe	0.008074699
18	0x3f21d368	0.63213205
19	0xbe9103fa	-0.28323346
20	0x3fb1bc99	1.388568
21	0xbdffa447	-0.12482505
22	0xbfa7032c	-1.3047843
23	0x402cff7e	2.703094
24	0xbf13a93e	-0.5768012
25	0x3f1bdbfb	0.6088254
26	0xbfaf6170	-1.370161
27	0x3f540ca9	0.8283182
28	0xbfb56510	-1.4171467
29	0xbf82c695	-1.0216852
30	0xbf9c3221	-1.2202798
31	0x3e265d8f	0.16246627
32	0x3ea6c996	0.32575673
33	0x3e87cc03	0.26522836
34	0x3e9a6b9a	0.30160218
35	0xbe5d4c5d	-0.21611162
36	0x3ebff61a	0.37492448
37	0xbf98bb8b	-1.1932234
38	0xbeb1f654	-0.34758246
39	0xc00c5d7b	-2.1932056
40	0xbe8aac11	-0.270844
41	0x3eb69a95	0.35664812
42	0x3ec0bbb0	0.37643194
43	0xbdeec81d	-0.11659262
44	0xbfa2342d	-1.2672173
45	0x3fb15d3a	1.3856575
46	0x3fbcec5d	1.4759632
47	0xbf875021	-1.0571328
48	0x3e9346fe	0.287651
49	0x402f66d9	2.7406523
50	0xbefca2b9	-0.49342898
51	0xc0360c35	-2.844495
52	0x3f429e07	0.7602238
53	0xc0311932	-2.7671628
54	0xbe9acb71	-0.30233338
55	0xbe1fabbc	-0.15592855
56	0x3f30090f	0.6876382
57	0xbebec7aa	-0.37261707
58	0x3ea0e21e	0.31422514
59	0x3f9492ef	1.160734
60	0xbf425ff6	-0.75927675
61	0xbe0f1229	-0.13971771
62	0xbf1969d7	-0.59927124
63	0xbe891abd	-0.26778212
64	0x3eb45b7c	0.35226047
65	0x3e53d39b	0.2068619
66	0xbf26867e	-0.6504897
67	0xbe190cf2	-0.14946344
68	0xbf898385	-1.0743262
69	0x3e3fd6eb	0.18734328
70	0x3f17f2f1	0.59355074
71	0xbcd4b6c7	-0.025966061
72	0x3e96df25	0.2946712
73	0x3ce11cc3	0.027479535
74	0xbfb78c5c	-1.4339709
75	0xbe76aaea	-0.24088636
76	0xbe8d9347	-0.27651426
77	0x3ec4b5bc	0.38419902
78	0x3f0fe081	0.5620194
79	0xbe35a5f0	-0.17739081
80	0xbfcb8045	-1.589852
81	0xbfa26d0c	-1.2689528
82	0x3d98bd28	0.07457954
83	0x3f11792e	0.5682553
84	0xbdb82c48	-0.08992821
85	0xbee00b74	-0.43758738
86	0xbe6c9b4a	-0.23106113
87	0xbf339680	-0.7015152
88	0xbeb1ea0c	-0.34748876
89	0x3de0068a	0.10938747
90	0x3ee8d84b	0.45477518
91	0x3e1abeba	0.15111819
92	0x3f231ed3	0.6371891
93	0x3f6072fb	0.87675446
94	0xbfa721b5	-1.3057162
95	0x3e4b8fc2	0.19879058
96	0x80181f92	-2.215377e-39
97	0x00056d25	4.98331e-40
98	0x801ca051	-2.628905e-39
99	0x802552b6	-3.427584e-39
100	0xbfa57b3b	-1.2928232
101	0x3fa7dceb	1.3114294
102	0xbe39a3ab	-0.1812884
103	0x3fbae67b	1.4601587
104	0xbfa684bb	-1.3009256
105	0x3f63acfa	0.88935816
106	0x3fadfa18	1.3591948
107	0xbf8bfa73	-1.0935806
108	0xbef44d28	-0.47715116
109	0xbd99eece	-0.075162515
110	0x3f7b4b90	0.98162174
111	0xbf62d94d	-0.88612825
112	0xbf9e1fb7	-1.2353429
113	0x3f1c6986	0.61098516
114	0x3f627351	0.8845721
115	0xbef0ae60	-0.47008038
116	0xbefcff2d	-0.49413434
117	0x3f952c61	1.1654168
118	0x3c9dbb3c	0.01925432
119	0xbef0cfa3	-0.47033414
120	0xbe8f46f3	-0.27983817
121	0x3fdb09b2	1.7112334
122	0x3e8fba14	0.28071654
123	0x3f96d932	1.1785033
124	0xbf88b101	-1.0679017
125	0xbec34b43	-0.38143358
126	0x3e53f5d1	0.2069924
127	0xbea22375	-0.31667677
128	0x3ed01b7e	0.40645975
129	0x3f4b3c41	0.79388815
130	0x3fb1f90b	1.3904127
131	0xbe873871	-0.2641025
132	0xbf3c1f86	-0.734856
133	0x3f87968b	1.0592817
134	0xbfa097f7	-1.2546376
135	0x3f7af938	0.9803653
136	0xbe4e0b9b	-0.20121615
137	0x3e5790d4	0.21051341
138	0x3e48b1cf	0.19599079
139	0xbee7ac42	-0.4524861
140	0xbea73902	-0.3266068
141	0xbd3c827b	-0.046022873
142	0xbe88765a	-0.26652795
143	0xbe3691dc	-0.17829078
144	0x3f28730b	0.6580054
145	0x3ef107e0	0.4707632
146	0x3c64dcd5	0.013968666
147	0x3ec2cc77	0.3804662
148	0xbf33f66e	-0.70297897
149	0x3f2d2eaf	0.6764936
150	0x3f3c715d	0.7361048
151	0xbf401431	-0.7503081
152	0x3f1d995e	0.61562145
153	0x3d3268f2	0.043557115
154	0x3e86d113	0.26331386
155	0xbf4f0cca	-0.8087889
156	0x3e179c40	0.14805698
157	0xbdc9fdb1	-0.09862841
158	0xbf1331f4	-0.574981
159	0x3f2eaadb	0.68229455
160	0x3bc7f21e	0.0061018607
161	0x3ee4f9fa	0.44721967
162	0x3f67b4dd	0.9051035
163	0xbf4c1873	-0.79724807
164	0xbf1e1f30	-0.6176634
165	0x3beb6c37	0.007184531
166	0x3f33f4b6	0.70295274
167	0x3e777dda	0.24169102
168	0x3f424b5b	0.75896233
169	0xbec98e1f	-0.39366242
170	0x3e1aedf9	0.15129842
171	0xbf9ce59a	-1.2257569
172	0xbfb1b809	-1.3884288
173	0xbe0734ff	-0.1320381
174	0x3f868067	1.0507935
175	0xbeb370ee	-0.35047096
176	0xbeef413b	-0.46729454
177	0x3f4fb5de	0.8113688
178	0x3f6cb8eb	0.9246966
179	0x3f22e749	0.63634163

weight f4 [8, 560]
0	0xbd08f72a	-0.03343884
1	0x3c178fd0	0.009250596
2	0x3d1a6ca6	0.03770127
3	0xb975fe00	-0.00023459643
4	0xbc8d8397	-0.017274661
5	0xbcdeb308	-0.027184978
6	0x3c0a1a54	0.008429129
7	0x3cd2ece4	0.025747724
8	0xbbda1270	-0.00665503
9	0xbcd7d410	-0.026346236
10	0xbcf8895b	-0.030338934
11	0xbcfd3dd6	-0.030913275
12	0x3d20fcc0	0.03930354
13	0x3cb85d78	0.022505507
14	0xbb386810	-0.0028138198
15	0x3d0b3cba	0.03399346
16	0x3d19746e	0.03746455
17	0xbd02c682	-0.031927593
18	0xbd030622	-0.03198827
19	0xbb9efe20	-0.0048520714
20	0x3c7d338c	0.015454184
21	0x3ccf0ab0	0.02527365
22	0x3cb572c0	0.022149444
23	0xbd10b0eb	-0.035324972
24	0x3d0206aa	0.031744637
25	0xbd291825	-0.04128279
26	0xbbf46db0	-0.007459365
27	0x3c32b8f0	0.01090835
28	0xbd059336	-0.032611094
29	0x3ce6cd60	0.028174102
30	0xbd1397a5	-0.03603329
31	0xbc24a790	-0.010049716
32	0xbcac8e72	-0.021064017
33	0x3ce15a7c	0.027508967
34	0xbd141769	-0.03615514
35	0xbcf59edc	-0.029982977
36	0xbd1e5b85	-0.0386615
37	0x3c905440	0.017618299
38	0x3cde8680	0.027163744
39	0xbc4ecb7e	-0.0126217585
40	0x3d2369ca	0.03989581
41	0x3cd91eac	0.026503883
42	0xbcf3e366	-0.029771518
43	0x3cf0fe80	0.02941823
44	0x3c98dacc	0.018659018
45	0xbcaf9c34	-0.021436788
46	0xbd03618c	-0.03207545
47	0x3c22c2bc	0.009934124
48	0x3c041dd8	0.008063756
49	0xbd2ad128	-0.041703373
50	0x3ccc84c4	0.024965651
51	0xbd1cc40e	-0.03827291
52	0x3a9a2160	0.0011759214
53	0x3c2de6a4	0.010614071
54	0x3c43ce8c	0.0119511
55	0xbc7b4708	-0.015336759
56	0xbc20c064	-0.0098114945
57	0xbd1de5c4	-0.0385492
58	0xbc8ae1e8	-0.016953424
59	0x3bea5758	0.0071515255
60	0xbc378ef4	-0.011203516
61	0xbc9bc822	-0.01901633
62	0x3a156940	0.00056995824
63	0xbd06c239	-0.03290007
64	0x3cba7a14	0.02276329
65	0x3cfea7d0	0.031085879
66	0xbc7b8108	-0.015350588
67	0x3cf09414	0.029367484
68	0xbc01456c	-0.007890087
69	0x3c8e3f74	0.017364241
70	0x3c5f3968	0.013624527
71	0x3cd90f1c	0.026496463
72	0x3ce727d8	0.028217241
73	0xbcb41fae	-0.021987762
74	0x3bb1c590	0.0054251626
75	0x3cf9be08	0.030486122
76	0xbad235e0	-0.0016037785
77	0xbca15636	-0.019694429
78	0x3d0c1a10	0.034204543
79	0x3c45cd04	0.012072805
80	0x3c98df14	0.01866106
81	0xbbb32120	-0.0054665953
82	0xbd1806e2	-0.03711594
83	0xbce1b4f7	-0.027552111
84	0xbcfadcdc	-0.030622892
85	0xbb0ce8b0	-0.0021500997
86	0x3bdda770	0.006764345
87	0xbd039fcb	-0.032134812
88	0xbcc9a4a0	-0.024614632
89	0xbc8114eb	-0.015757045
90	0xbbcc79b0	-0.006240092
91	0xbc92ac01	-0.017904283
92	0x3c664f84	0.014057044
93	0x3ceab348	0.028649941
94	0x3ce6ef5c	0.028190307
95	0xbc5c483e	-0.013444958
96	0xbd16e8a2	-0.03684295
97	0x3cd4a640	0.02595818
98	0x3d2cf2aa	0.04222361
99	0x3d10fe32	0.03539867
100	0xbced3750	-0.02895704
101	0x3bb216e0	0.005434856
102	0xbcc23e6f	-0.023711411
103	0xbcfc4cf8	-0.03079842
104	0xbcee765b	-0.02910917
105	0x3c4b0c00	0.012392998
106	0xbcb92e2b	-0.022605022
107	0xbcf0aa28	-0.029378012
108	0xbcefeea6	-0.029288601
109	0x3bf98db8	0.007615771
110	0x3ceb1e44	0.028700955
111	0xbc6f978c	-0.014623534
112	0x3c9005b2	0.01758084
113	0x3d221ef0	0.039580286
114	0xbc0b3e78	-0.00849878
115	0xbb9062e8	-0.004406322
116	0x3c850efe	0.0162425
117	0xbcb03bbd	-0.02151286
118	0xbcee6cb3	-0.029104566
119	0x3d0786ac	0.033087417
120	0x3d296ddc	0.041364536
121	0x3ab588a0	0.0013849922
122	0x3ca55b9e	0.020185288
123	0xbc95be8f	-0.018279342
124	0x3c0b0338	0.008484654
125	0x3cea9ce4	0.028639264
126	0x3d1d1bfc	0.038356766
127	0xbc6a2a4e	-0.014292313
128	0x3c046bf4	0.008082379
129	0x3c25c450	0.010117605
130	0xbc484562	-0.012223573
131	0xbd03715a	-0.032090522
132	0xbcfa8574	-0.030581214
133	0x3b741550	0.0037244149
134	0x3c7febe0	0.015620202
135	0x3ce97c70	0.02850172
136	0x3cdb7760	0.02679032
137	0xbbdbcf40	-0.0067080557
138	0x3bb8d5d0	0.005640723
139	0xbc70b7f4	-0.014692295
140	0xbd1d5754	-0.03841336
141	0xbd0bd07d	-0.034134377
142	0xbc04ed4c	-0.008113217
143	0xbd29e06e	-0.0414738
144	0xbc7cc52c	-0.015427869
145	0xbd0a7922	-0.033806928
146	0x3bd026e0	0.0063522905
147	0x3d2cd0f8	0.042191476
148	0xbc6c672c	-0.014428895
149	0x3d01ac0a	0.03165821
150	0xba3a7800	-0.00071132183
151	0xbc7822de	-0.015145032
152	0xbd1bc00b	-0.038024943
153	0x3a99dae0	0.0011738203
154	0xbd1dd2da	-0.03853116
155	0x3c9d54d6	0.019205492
156	0xbc818aab	-0.015813192
157	0xbd082fbf	-0.03324866
158	0xbd0eec74	-0.034893468
159	0xbba9a7e0	-0.005177483
160	0xbcc484e2	-0.023989145
161	0xbceba434	-0.028764822
162	0xbd02a36b	-0.03189413
163	0x3bbb9660	0.005724713
164	0xbb893090	-0.0041866973
165	0xbb5082f0	-0.0031816326
166	0x3b3e95f0	0.002908107
167	0x3d1a6a2c	0.03769891
168	0x3c7bda0c	0.015371811
169	0xbd2bbbb8	-0.04192707
170	0xbcc87df9	-0.024474131
171	0x3d17eb36	0.03708955
172	0x3cbc435c	0.022981338
173	0x3bed4f78	0.0072421394
174	0xbc17e550	-0.009270981
175	0x3b29cfe0	0.0025911257
176	0x3c359dec	0.011085015
177	0xbb557090	-0.0032568313
178	0x3cf2a534	0.02961979
179	0x3d26d514	0.04073055
180	0xbccd9955	-0.025097528
181	0x3cda26c8	0.02662982
182	0xbc07da14	-0.00829174
183	0xbc485e70	-0.012229547
184	0x3c65dd00	0.014029741
185	0xbd0041f8	-0.031312913
186	0x3d0055c2	0.031331785
187	0x3c619e14	0.013770599
188	0xbc92a696	-0.0179017
189	0xbc8dd0fc	-0.017311566
190	0xbd059c83	-0.032619964
191	0x3ccddf90	0.025131017
192	0x3cb6d6e8	0.022319272
193	0x3cec0070	0.028808802
194	0xbd14a407	-0.03628924
195	0xbc5141ce	-0.012772037
196	0xbc0f6a90	-0.008753434
197	0x3bd03c78	0.0063548647
198	0xbc570152	-0.013122873
199	0xbcb0bc1b	-0.02157407
200	0x3d015e3e	0.031584017
201	0x3cecfaf0	0.02892825
202	0xbbefd588	-0.007319156
203	0xbaba7320	-0.0014224984
204	0xbb5cdf60	-0.0033702478
205	0x3bd39fa0	0.006458238
206	0x3c75b88c	0.014997613
207	0xbc8e0de3	-0.017340606
208	0xbbfb6e18	-0.0076730363
209	0x3d07e8a6	0.033180855
210	0x3cbf893c	0.023380868
211	0x3cdd832c	0.027040087
212	0x3cff9ef0	0.031203717
213	0x3cb2f868	0.021846965
214	0x3cef4564	0.029207893
215	0xbd14680b	-0.036232036
216	0xbbe6a238	-0.007038381
217	0x3cd9d8d4	0.02659265
218	0x3d12e6b4	0.035864547
219	0x3b327140	0.0027228147
220	0xbc735754	-0.014852364
221	0x3cea6e2c	0.028616987
222	0x3d22c5b6	0.039739333
223	0xbc164740	-0.009172261
224	0x3cf17760	0.029475868
225	0xbcaa954c	-0.020823143
226	0xbd0469d1	-0.032327477
227	0xbd2b3e76	-0.041807614
228	0xbcebc14f	-0.0287787
229	0xbd272a42	-0.040811785
230	0x3d16802e	0.036743335
231	0x3c525588	0.012837775
232	0xbc954bf2	-0.01822469
233	0x3cffea98	0.031239793
234	0xbc252054	-0.010078508
235	0x3b7fdf50	0.0039043017
236	0xbb04e6d0	-0.0020279177
237	0x3c30cc9c	0.01079097
238	0x3cad6c3c	0.021169774
239	0x3d0947de	0.033515804
240	0x3cbde3d8	0.023179933
241	0xba0596c0	-0.0005096011
242	0x3b7251e0	0.003697507
243	0xbc99f88e	-0.018795278
244	0x3cfc5dd0	0.030806452
245	0x3d265222	0.04060567
246	0x3d09eca0	0.03367293
247	0xbd0a08d7	-0.033699837
248	0xbc58351c	-0.013196256
249	0xbbd116d8	-0.006380897
250	0x3c08cc60	0.008349508
251	0xbc706f96	-0.014675042
252	0x3bba14e0	0.005678758
253	0xbb546630	-0.0032409541
254	0x3ca2dca2	0.019880597
255	0xbc7f89ea	-0.015596846

bias f4 [8]
0	0x3c9ed894	0.019390382
1	0x3cfac960	0.030613601
2	0x3d289036	0.041153155
3	0xbc802c4f	-0.015646128
4	0xbc9be092	-0.019027982
5	0x3c660258	0.014038645
6	0x3d0ec238	0.03485319
7	0xbca8d406	-0.020608913

weight f4 [8, 8]
0	0xbe7395de	-0.23787639
1	0xbe13d337	-0.14436041
2	0x3e5d9446	0.21638593
3	0xbd93b1ec	-0.0721167
4	0x3ea2108f	0.31653258
5	0x3e4208ea	0.18948713
6	0xbd7b9b10	-0.061427176
7	0x3e169eb6	0.14708981
8	0xbe82eece	-0.2557282
9	0x3e809d45	0.25119987
10	0xbe98455c	-0.29740417
11	0xbcfef7b0	-0.031123966
12	0x3e9be0e5	0.30445018
13	0x3e99f719	0.30071333
14	0x3dbac308	0.091192305
15	0x3ea34681	0.31889728
16	0xbe71c7aa	-0.23611322
17	0x3de57658	0.11204213
18	0x3de1cf30	0.11025846
19	0x3dd8f1d8	0.10593003
20	0x3c9827c0	0.018573642
21	0x3eb31197	0.34974357
22	0xbd205618	-0.039144605
23	0x3e8104cd	0.25198975
24	0x3e88209f	0.26587388
25	0xbdbbda28	-0.091724694
26	0x3e399362	0.18122628
27	0x3e932fe9	0.2874749
28	0xbdabeca0	-0.08394742
29	0xbe0a373a	-0.1349763
30	0x3e4a732a	0.19770494
31	0xbeacf883	-0.3378335
32	0x3df2ce1c	0.118557185
33	0x3e90e371	0.28298524
34	0xbe85b529	-0.26114777
35	0xbdb92ab0	-0.09041345
36	0x3c128860	0.008943647
37	0xbe867669	-0.26262215
38	0xbe4270f0	-0.18988395
39	0x3aa64b00	0.0012687147
40	0x3e456bfe	0.19279477
41	0x3eab64a5	0.33475223
42	0x3eaac60d	0.33354226
43	0xbc392a60	-0.011301607
44	0xbe9708b5	-0.2949883
45	0xbe85d894	-0.26141798
46	0xbdd39934	-0.103319556
47	0xbb178f00	-0.0023126006
48	0x3e46c856	0.1941236
49	0x3e8552ff	0.26039883
50	0x3d8ce738	0.06880039
51	0x3e1ebc92	0.15501621
52	0x3d98651c	0.0744116
53	0xbeabb548	-0.33536744
54	0x3df104fc	0.11768529
55	0xbe8e5860	-0.278018
56	0x3dcb55dc	0.09928486
57	0x3e8a3d6f	0.26999995
58	0xbd15ad10	-0.036542
59	0x3d3f98d8	0.046776623
60	0xbd9282bc	-0.07153842
61	0x3dd46e84	0.10372642
62	0x3ea66b61	0.325038
63	0x3e715f3a	0.23571482

bias f4 [8]
0	0xbe0eeff8	-0.13958728
1	0x3de17878	0.11009306
2	0x3a0e1200	0.00054195523
3	0x3e2b41b2	0.1672428
4	0xbe05a708	-0.13051999
5	0xbe400605	-0.18752296
6	0x3db31fdc	0.08746311
7	0xbe043405	-0.12910469

weight f4 [1, 8]
0	0x3d92bb74	0.0716466
1	0xbdb4fb9c	-0.08837053
2	0xbeb4e403	-0.3533021
3	0x3eb43041	0.35193065
4	0xbd98815c	-0.07446548
5	0xbd47de90	-0.048796237
6	0xbe176113	-0.14783125
7	0x3e16f6f6	0.14742646

weight_ih_l0 f4 [32, 4]
0	0xa7a7bf68	-4.6559334e-15
1	0x2700d10e	1.7876897e-15
2	0xa78f7f45	-3.982846e-15
3	0xa6fc3e1d	-1.7502848e-15
4	0x33a51d88	7.688783e-08
5	0xb364760c	-5.319275e-08
6	0x34166941	1.400813e-07
7	0x33ac1e84	8.014925e-08
8	0x33978fac	7.057619e-08
9	0xb3481ee0	-4.659421e-08
10	0x340a2403	1.2865353e-07
11	0x339dc328	7.346381e-08
12	0x33709758	5.6017e-08
13	0xb30e8a4c	-3.318773e-08
14	0x33d9e2eb	1.0146126e-07
15	0x3376907a	5.740774e-08
16	0x3376266e	5.731129e-08
17	0xb31336b8	-3.427587e-08
18	0x33df4961	1.0397594e-07
19	0x337c9b2a	5.8814443e-08
20	0xaa2ff043	-1.562648e-13
21	0xa79d3400	-4.3632632e-15
22	0xaadf8e8a	-3.9711664e-13
23	0x2a6c3398	2.0978911e-13
24	0x3390bb18	6.739555e-08
25	0xb33a78bc	-4.3416307e-08
26	0x3403df2e	1.2281518e-07
27	0x3396033c	6.9855076e-08
28	0xa7de622a	-6.1723808e-15
29	0xa953ffdc	-4.7073334e-14
30	0xaa1b3498	-1.3785013e-13
31	0xa966232c	-5.1100766e-14
32	0xa7a7e90a	-4.6604473e-15
33	0x270115f5	1.791425e-15
34	0xa78e599c	-3.951007e-15
35	0xa6fcbe94	-1.7537669e-15
36	0x33f5d322	1.14471064e-07
37	0xb40ebd0a	-1.3293553e-07
38	0x347d1deb	2.3573345e-07
39	0x3416b86a	1.4036928e-07
40	0x33e86280	1.0821259e-07
41	0xb3ea2810	-1.09037614e-07
42	0x3466b701	2.1486996e-07
43	0x3408169e	1.2674215e-07
44	0x33c5be17	9.2081045e-08
45	0xb39f83f4	-7.4280166e-08
46	0x343b589f	1.7447972e-07
47	0x33d8bcb2	1.0092607e-07
48	0x33c9a176	9.3891614e-08
49	0xb3a6547c	-7.745345e-08
50	0x3440075c	1.7884071e-07
51	0x33de7b02	1.03600556e-07
52	0xaa2fec86	-1.5625183e-13
53	0xa8045000	-7.344819e-15
54	0xaadfdeb2	-3.9767283e-13
55	0x2a68b2ec	2.0667815e-13
56	0x33e66072	1.0727753e-07
57	0xb3e5a468	-1.0693549e-07
58	0x3464c0e5	2.130433e-07
59	0x3406923a	1.253292e-07
60	0xa7e1732a	-6.2574906e-15
61	0xa95312a8	-4.6867593e-14
62	0xaa1b639c	-1.3801324e-13
63	0xa965ca24	-5.1023544e-14
64	0xaf52cc83	-1.9172046e-10
65	0xabd414c0	-1.5069265e-12
66	0xaf41d633	-1.7629347e-10
67	0x2ddd4afa	2.5158087e-11
68	0xb3e7140d	-1.0760423e-07
69	0x33ea4a14	1.0909949e-07
70	0xb465694a	-2.1365591e-07
71	0xb40a7870	-1.2896066e-07
72	0x33dadd22	1.019164e-07
73	0xb3cc5634	-9.5151705e-08
74	0x345646b1	1.995602e-07
75	0x3400963c	1.1975584e-07
76	0xb3b5a400	-8.458301e-08
77	0x338aed94	6.469341e-08
78	0xb42bc36b	-1.5996709e-07
79	0xb3ca60c4	-9.4239596e-08
80	0x33b95597	8.6303025e-08
81	0xb3907234	-6.726296e-08
82	0x342fe722	1.638223e-07
83	0x33cf9f86	9.668206e-08
84	0x31186819	2.2178084e-09
85	0xb05d0170	-8.0401374e-10
86	0x315e38ca	3.2337533e-09
87	0x310108ac	1.87769e-09
88	0x33d0c1c4	9.7210005e-08
89	0xb3b77eb0	-8.544646e-08
90	0x344a2954	1.8827751e-07
91	0x33f0e164	1.1216869e-07
92	0xb05e544e	-8.0882934e-10
93	0x2f915804	2.6437885e-10
94	0xb0a40912	-1.1935148e-09
95	0xb04afe18	-7.384826e-10
96	0xa77364cf	-3.3777673e-15
97	0x26ba3120	1.2919658e-15
98	0xa7504581	-2.8903477e-15
99	0xa6b77d3e	-1.2732123e-15
100	0x337d4cac	5.8975886e-08
101	0xb317f128	-3.5376758e-08
102	0x33e3a25d	1.0600045e-07
103	0x337fb592	5.953695e-08
104	0x337b6fd8	5.8542213e-08
105	0xb3164844	-3.499032e-08
106	0x33e1cdcc	1.0514813e-07
107	0x337d23b0	5.893861e-08
108	0x336f58f4	5.5727426e-08
109	0xb30bd534	-3.2557367e-08
110	0x33d61d2d	9.9704586e-08
111	0x336f034c	5.5649522e-08
112	0x336e36c2	5.5463495e-08
113	0xb30acef8	-3.2318866e-08
114	0x33d52a78	9.9263104e-08
115	0x336de7a8	5.5391553e-08
116	0xa9ff870f	-1.1347704e-13
117	0xa78e5c80	-3.9513206e-15
118	0xaaa1a5f4	-2.8714498e-13
119	0x2a28e340	1.500024e-13
120	0x3375a9f8	5.7198093e-08
121	0xb3115080	-3.3833658e-08
122	0x33dc7224	1.02653104e-07
123	0x33770700	5.7515535e-08
124	0xa7a0e6ff	-4.4659367e-15
125	0xa919cec8	-3.415218e-14
126	0xa9e11bb8	-9.9968157e-14
127	0xa92711b4	-3.7096804e-14

weight_hh_l0 f4 [32, 8]
0	0x2cc7120c	5.6579238e-12
1	0xb2903640	-1.6788476e-08
2	0x32887470	1.5885433e-08
3	0xb272ba72	-1.4128647e-08
4	0x3274d148	1.4250254e-08
5	0x2bcbb9fa	1.4475636e-12
6	0x328d93c4	1.6481756e-08
7	0xad539938	-1.2027983e-11
8	0xb7a9398d	-2.017317e-05
9	0xbda589a1	-0.08082891
10	0x3d9e0c13	0.07717147
11	0xbd909ded	-0.07061372
12	0x3d90feef	0.07079875
13	0x3a7209d9	0.0009233035
14	0x3da07195	0.07834164
15	0xb95e0ee2	-0.00021177114
16	0xb7a37b62	-1.9488569e-05
17	0xbda0003c	-0.07812545
18	0x3d983020	0.07431054
19	0xbd8cc7c5	-0.068740405
20	0x3d8c7c0e	0.06859599
21	0x3a6749ec	0.0008822966
22	0x3d9bc26d	0.07605443
23	0xb94f44c1	-0.00019766671
24	0xb7a04f8a	-1.9110525e-05
25	0xbda4b097	-0.08041494
26	0x3d9d6dc4	0.07686952
27	0xbd8f3e3e	-0.06994294
28	0x3d8f69b1	0.07002581
29	0x3a67fb40	0.000884939
30	0x3d9f0728	0.07765037
31	0xb9553fcd	-0.0002033703
32	0xb7a1bd57	-1.9280864e-05
33	0xbda83b2e	-0.08214413
34	0x3da05fd0	0.07830775
35	0xbd920df6	-0.07131569
36	0x3d922a26	0.071369454
37	0x3a69ce6d	0.00089190045
38	0x3da2411b	0.07922574
39	0xb9574f8c	-0.00020533631
40	0xadaead48	-1.9858462e-11
41	0x353bc16b	6.994439e-07
42	0xb53ad46b	-6.959951e-07
43	0x3539f3de	6.9272744e-07
44	0xb53a1412	-6.9319606e-07
45	0x2e00d760	2.9295122e-11
46	0xb53b8b4a	-6.986562e-07
47	0xb026f25b	-6.0734856e-10
48	0xb7a8fd8b	-2.0145226e-05
49	0xbdad1a33	-0.08452263
50	0x3da58eba	0.080838636
51	0xbd967a9c	-0.07347605
52	0x3d96971c	0.073530406
53	0x3a74cc9a	0.00093383493
54	0x3da6e8c0	0.08149862
55	0xb9651e5b	-0.0002185045
56	0x2c6dfc20	3.3819683e-12
57	0x349908fc	2.8505008e-07
58	0xb496d62d	-2.809551e-07
59	0x3495e49e	2.7919754e-07
60	0xb495fac0	-2.7935857e-07
61	0x2ffdde87	4.6178547e-10
62	0xb49848ff	-2.8365318e-07
63	0xaf4c69c4	-1.8591267e-10
64	0xac34fed6	-2.5721e-12
65	0xb28f0d63	-1.6653479e-08
66	0x328a6381	1.6110564e-08
67	0xb27fe787	-1.4895597e-08
68	0x3280d442	1.4997685e-08
69	0x2ca8dec0	4.7995774e-12
70	0x328dfabf	1.6528586e-08
71	0xad3f1912	-1.086266e-11
72	0xb7a15ded	-1.9236433e-05
73	0xbe2689db	-0.16263525
74	0x3e24dfdf	0.16101025
75	0xbe15889b	-0.14602892
76	0x3e129999	0.14316405
77	0x3a86f738	0.0010297066
78	0x3e21187b	0.15731995
79	0xb9e99e11	-0.00044558992
80	0xb79c2086	-1.8611794e-05
81	0xbe216646	-0.1576167
82	0x3e0f92ca	0.1402084
83	0xbe0b371f	-0.13595246
84	0x3e05d43b	0.13069241
85	0x3a864e48	0.0010246718
86	0x3e159435	0.14607318
87	0xb9d810d4	-0.00041211268
88	0xb78fe4c9	-1.7153465e-05
89	0xbe14bbf5	-0.14524825
90	0x3e0d44ee	0.13795826
91	0xbe00b323	-0.12568335
92	0x3dfffb26	0.12499075
93	0x3a8191ba	0.0009885349
94	0x3e0c44c2	0.13698104
95	0xb9ce37e5	-0.00039333027
96	0xb79293c7	-1.747337e-05
97	0xbe149184	-0.14508635
98	0x3e0ed4ae	0.13948318
99	0xbe030a30	-0.12796855
100	0x3e0207f2	0.12698343
101	0x3a824e07	0.0009941467
102	0x3e0e5a2d	0.13901587
103	0xb9d1e66d	-0.00040035267
104	0xadad8d9a	-1.9730707e-11
105	0x353b09ae	6.9677014e-07
106	0xb53a1b00	-6.932969e-07
107	0x35393a1a	6.900242e-07
108	0xb5395a53	-6.904931e-07
109	0x2d316700	1.0084156e-11
110	0xb53ad2ae	-6.959698e-07
111	0xb0256839	-6.017476e-10
112	0xb79b6be9	-1.852769e-05
113	0xbe269865	-0.16269071
114	0x3e220987	0.15823947
115	0xbe145cbb	-0.14488499
116	0x3e139107	0.14410792
117	0x3a83ffac	0.0010070703
118	0x3e21f86f	0.15817426
119	0xb9e73bd2	-0.00044104323
120	0x2c92f968	4.1772592e-12
121	0x34983da3	2.8357053e-07
122	0xb495cb91	-2.7901527e-07
123	0x34949295	2.76738e-07
124	0xb494ae46	-2.769395e-07
125	0x2ffd87df	4.6116974e-10
126	0xb4976651	-2.8200387e-07
127	0xaf320aa4	-1.6192786e-10
128	0x316695c8	3.3554546e-09
129	0x355b05c3	8.159224e-07
130	0xb598cc56	-1.1384352e-06
131	0x35d62054	1.5953651e-06
132	0xb5d32f39	-1.5734469e-06
133	0x34811382	2.4042316e-07
134	0xb581960c	-9.654918e-07
135	0xb3ab886e	-7.9876244e-08
136	0x37d0a671	2.4873038e-05
137	0x3e19fe7b	0.15038483
138	0xbe1a4af5	-0.15067656
139	0x3e08ddcb	0.13365857
140	0xbe059653	-0.13045625
141	0xbaa46c75	-0.001254453
142	0xbe159e91	-0.1461127
143	0x3a02e966	0.00049938855
144	0xb7c9fccd	-2.4078787e-05
145	0xbe1a9333	-0.15095215
146	0x3e098634	0.134301
147	0xbdf88ee8	-0.12136632
148	0x3e00f6c4	0.12594134
149	0x3a9f689e	0.0012161916
150	0x3e09976a	0.13436666
151	0xb9f7bd8b	-0.00047252732
152	0x37c2a296	2.3202312e-05
153	0x3e21b7ed	0.15792818
154	0xbe1a73a8	-0.15083182
155	0x3e01d23d	0.12677856
156	0xbe04a397	-0.1295303
157	0xba9b2fdd	-0.0011839826
158	0xbe140a70	-0.14457107
159	0x39f0fcac	0.00045964622
160	0xb7c50aa4	-2.3489185e-05
161	0xbe26b3b0	-0.16279483
162	0x3e20acfb	0.15690987
163	0xbe0b21fc	-0.13587183
164	0x3e016bf5	0.12638839
165	0x3a9c8c73	0.0011943713
166	0x3e18a940	0.14908314
167	0xb9f4e326	-0.00046708545
168	0x3523b77c	6.0989237e-07
169	0x3893541c	7.025173e-05
170	0xb8f1057b	-0.00011492796
171	0x39248b65	0.00015692187
172	0xb91d9892	-0.00015029524
173	0xb59cca3f	-1.1681767e-06
174	0xb8a58499	-7.892511e-05
175	0x35387ff9	6.8731566e-07
176	0xb7ce518b	-2.4595085e-05
177	0xbe133b82	-0.14378169
178	0x3e24958c	0.16072673
179	0xbe057d26	-0.13036022
180	0x3e066c7d	0.13127322
181	0x3aa2cf3d	0.0012421381
182	0x3e14832e	0.14503166
183	0xba012a6d	-0.00049272814
184	0xb46aa8b6	-2.1854325e-07
185	0xb7873075	-1.6115819e-05
186	0x37b10afb	2.1105157e-05
187	0xb83fae40	-4.570023e-05
188	0x38441d34	4.675724e-05
189	0x353a764c	6.9462544e-07
190	0x37e0a22e	2.6778402e-05
191	0xb4f0d339	-4.4857168e-07
192	0x2c83533e	3.7324857e-12
193	0xb2904573	-1.6795388e-08
194	0x32893cf8	1.5976624e-08
195	0xb2767669	-1.4346008e-08
196	0x327879e5	1.44632155e-08
197	0x2c152316	2.119365e-12
198	0x328e011c	1.653148e-08
199	0xad4e8914	-1.1740182e-11
200	0xb6eb1220	-7.005656e-06
201	0xbe385b89	-0.18003668
202	0x3e312115	0.17297776
203	0xbe0f6467	-0.14003144
204	0x3e1171c4	0.14203554
205	0x39edc411	0.00045350243
206	0x3e1f9269	0.15583195
207	0xb94c6c61	-0.0001949533
208	0xb70370a5	-7.834436e-06
209	0xbe1f276c	-0.15542382
210	0x3e03a2ff	0.12855147
211	0xbdf784f5	-0.120859064
212	0x3df88667	0.1213501
213	0x3a1af6bd	0.00059114007
214	0x3e094cbc	0.13408178
215	0xb976e282	-0.00023544769
216	0xb6f1bbef	-7.204238e-06
217	0xbe0e0a30	-0.13871074
218	0x3e08130d	0.13288517
219	0xbde9cf16	-0.11416452
220	0x3de6d929	0.11271889
221	0x3a07954b	0.00051720877
222	0x3dffd983	0.12492659
223	0xb9537c20	-0.00020168768
224	0xb6eb1c7a	-7.006861e-06
225	0xbe07c416	-0.13258395
226	0x3e01ddac	0.12682217
227	0xbde81f55	-0.11334101
228	0x3de27bb1	0.110587485
229	0x39fc733b	0.0004815104
230	0x3dfa40da	0.12219401
231	0xb9462dca	-0.00018899809
232	0xadae3a92	-1.980752e-11
233	0x353b8be5	6.98665e-07
234	0xb53a9e66	-6.95209e-07
235	0x3539bdb9	6.9193953e-07
236	0xb539ddeb	-6.9240804e-07
237	0x2dddb180	2.5203617e-11
238	0xb53b5588	-6.9787393e-07
239	0xb026aaba	-6.0633065e-10
240	0xb6dcb87b	-6.5779873e-06
241	0xbe23a1aa	-0.15979639
242	0x3e21995c	0.15781158
243	0xbe0df871	-0.13864304
244	0x3e09069d	0.13381429
245	0x39c8b799	0.00038283764
246	0x3e17380a	0.14767471
247	0xb92ce9e7	-0.00016490334
248	0x2c85577c	3.7898e-12
249	0x3498de81	2.84741e-07
250	0xb4969ef1	-2.8055322e-07
251	0x34959f1b	2.7869177e-07
252	0xb495b663	-2.7886117e-07
253	0x2ffdcce0	4.6166004e-10
254	0xb49819d9	-2.8331013e-07
255	0xaf4754e5	-1.8129105e-10

bias_ih_l0 f4 [32]
0	0x32227556	9.45632e-09
1	0x3e03aa93	0.12858038
2	0x3ded0d57	0.1157481
3	0x3e09b592	0.1344817
4	0x3dffe0ab	0.12494024
5	0xb59953dc	-1.1423795e-06
6	0x3e0f63ef	0.14002965
7	0xb4eda510	-4.426479e-07
8	0x31c55eff	5.7442544e-09
9	0x3e6ca2b3	0.2310894
10	0x3e5c6664	0.21523434
11	0x3e618323	0.22022681
12	0x3e5573a4	0.20844895
13	0xb59bb403	-1.160079e-06
14	0x3e6da52f	0.23207544
15	0xb4ef8f56	-4.462151e-07
16	0x35f13a72	1.7972909e-06
17	0xbe6dd589	-0.23225988
18	0x3e6173dc	0.22016853
19	0xbe846a4d	-0.2586235
20	0x3e37add2	0.17937401
21	0x39743dfa	0.00023292741
22	0x3e86f928	0.26361966
23	0xb78c5658	-1.6729507e-05
24	0x3213e20e	8.607925e-09
25	0x3e68fde6	0.22753105
26	0x3e91bbf4	0.2846371
27	0x3e621ba2	0.22080854
28	0x3e579faa	0.21057001
29	0xb59a0643	-1.1475717e-06
30	0x3e8d9451	0.2765222
31	0xb4ee0716	-4.433611e-07

bias_hh_l0 f4 [32]
0	0x32227556	9.45632e-09
1	0x3e04dacf	0.12974094
2	0x3dfbfe1b	0.12304326
3	0x3dfd89f6	0.123798296
4	0x3df5eeb7	0.12008422
5	0xb59953dc	-1.1423795e-06
6	0x3e00aa20	0.12564898
7	0xb4eda510	-4.426479e-07
8	0x31c55eff	5.7442544e-09
9	0x3e8a9401	0.27066043
10	0x3e81b0b2	0.2533012
11	0x3e4500f8	0.19238651
12	0x3e6c2ddf	0.23064373
13	0xb59bb403	-1.160079e-06
14	0x3e78bbe6	0.24290428
15	0xb4ef8f56	-4.462151e-07
16	0x35f13a72	1.7972909e-06
17	0xbe59b24d	-0.21259423
18	0x3e79cec9	0.24395289
19	0xbe4366ee	-0.19082233
20	0x3e81005f	0.25195596
21	0x39743dfa	0.00023292741
22	0x3e48a9b7	0.19595991
23	0xb78c550a	-1.67289e-05
24	0x3213e20e	8.607925e-09
25	0x3eaa3cb3	0.33249435
26	0x3e89302d	0.26794568
27	0x3e55c3ad	0.20875426
28	0x3e6d23a9	0.23158135
29	0xb59a0643	-1.1475717e-06
30	0x3e89aec5	0.2689115
31	0xb4ee0716	-4.433611e-07

weight_ih_l0_reverse f4 [32, 4]
0	0x3f3948e9	0.7237688
1	0xbf5c3847	-0.8602337
2	0x3dace0ee	0.084413394
3	0x3f50abf4	0.8151238
4	0x3f881fcc	1.0634704
5	0x3f54383a	0.82898295
6	0x3eb7c73a	0.35894185
7	0x3ef3a9ef	0.47590587
8	0xbec0dde0	-0.37669277
9	0xbec5cbac	-0.38631952
10	0x3e618f4e	0.22027323
11	0x3d31e7bb	0.043433886
12	0xbe227dfa	-0.15868369
13	0xbe5690c7	-0.20953666
14	0xbe045a98	-0.12925184
15	0x3f35c977	0.71010536
16	0xbef24a04	-0.47322094
17	0x3f5637a8	0.83678675
18	0xbe7b8a27	-0.2456442
19	0xbf05256d	-0.5201023
20	0xbe9f482e	-0.31109756
21	0xbddaa633	-0.10676231
22	0xbec0e0ff	-0.37671658
23	0x3f137e6d	0.57614785
24	0x3ea3548d	0.31900445
25	0x3f6a72ed	0.9158161
26	0xbe9878b6	-0.29779595
27	0xbf260b80	-0.648613
28	0x3f85e225	1.0459639
29	0x3f2233bf	0.6336021
30	0xbea53070	-0.32263517
31	0x3ea028db	0.3128117
32	0x3e421516	0.18953356
33	0xbec4ac73	-0.38412818
34	0xbe139518	-0.14412344
35	0x3e5ac769	0.21365131
36	0xbf5c7cbe	-0.8612784
37	0xbec36d23	-0.38169202
38	0x3e8581b5	0.2607552
39	0xbf074652	-0.52841675
40	0x3eb6f215	0.3573157
41	0x3e7ac2f6	0.24488434
42	0x3ed4bcb4	0.4155022
43	0xbf20aaeb	-0.627608
44	0xbf06e46b	-0.5269229
45	0x3ef76b4f	0.48324057
46	0xbcc1dc75	-0.023664692
47	0xbf3d511c	-0.7395189
48	0x3c8a6f0c	0.016898654
49	0x3e063d97	0.13109432
50	0x3e46255e	0.19350192
51	0x3e5d1522	0.21590093
52	0x3e82ec74	0.25571024
53	0xbef5a711	-0.47979024
54	0x3e26661f	0.16249894
55	0xbe9a32ac	-0.30116785
56	0xbea73337	-0.3265626
57	0xbeb0b2ee	-0.34511513
58	0x3cc699eb	0.024243316
59	0xbe47aa39	-0.19498529
60	0xbcdde673	-0.027087426
61	0xbedf2b85	-0.4358789
62	0xbdcc9092	-0.09988512
63	0x3ea49056	0.3214137
64	0x3f571ceb	0.840285
65	0x3f1071ae	0.5642346
66	0x3d80b760	0.06284976
67	0xbca5dd4e	-0.020247128
68	0x3ef2eb0c	0.47444952
69	0xbeabef53	-0.33581027
70	0xbe644007	-0.2229005
71	0x3f233f29	0.6376825
72	0xbebcee2c	-0.3690046
73	0x3cd7903f	0.0263139
74	0x3e5cc4fc	0.21559519
75	0x3ebbff06	0.36718005
76	0xbe02b5b1	-0.12764622
77	0x3e7a688b	0.24453942
78	0x3e806340	0.25075722
79	0x3f51dc7e	0.8197707
80	0x3efd32a0	0.49452686
81	0xbb9de718	-0.0048188083
82	0xbf530c25	-0.82440406
83	0x3f066b7c	0.5250776
84	0xbe8e6e28	-0.27818418
85	0xbea58511	-0.32328084
86	0x3f5a788e	0.853402
87	0xbdaaf700	-0.08347893
88	0x3e8973e3	0.26846227
89	0xbeeacf07	-0.45861074
90	0xbe2b4a51	-0.16727568
91	0x3ead6acd	0.33870545
92	0x3d13be33	0.03607006
93	0xbf02a6e6	-0.51035917
94	0x3e8e082e	0.27740616
95	0x3ee7c167	0.45264742
96	0x3e9720bf	0.2951717
97	0xbefba3e0	-0.49148464
98	0x3deb3d32	0.114862815
99	0x3ef9337a	0.48672086
100	0x3e2363bc	0.15956014
101	0x3c8959ce	0.016766455
102	0xbe0e7921	-0.13913395
103	0x3ee7a1d1	0.45240644
104	0x3f032063	0.51221293
105	0xbf7d6292	-0.9897853
106	0x3b77ca0d	0.003780964
107	0xbe59600a	-0.21228042
108	0x3e6447dc	0.22293037
109	0xbe9b317a	-0.30311185
110	0xbe08e826	-0.13369808
111	0x3e571d6a	0.21007314
112	0xbd314759	-0.043280933
113	0x3e156281	0.14588358
114	0xbe0a1a0e	-0.13486502
115	0xbe7ecd4f	-0.24883007
116	0x3c7021e4	0.014656518
117	0xbe82a082	-0.25513083
118	0x3eecb459	0.46231344
119	0x3ed99e4d	0.42503586
120	0x3e0a9080	0.13531685
121	0x3ebe0829	0.371156
122	0xbd880f36	-0.06643526
123	0xbedaa2f6	-0.42702454
124	0xbf07d13f	-0.5305366
125	0x3e06f570	0.13179564
126	0xbef72228	-0.48268247
127	0xbf114453	-0.5674488

weight_hh_l0_reverse f4 [32, 8]
0	0x3eb3f5f9	0.351486
1	0x3e766fa3	0.24066024
2	0x3d9c5a57	0.076344185
3	0xbe5dda50	-0.21665311
4	0xbf51db6e	-0.8197545
5	0x3f039d45	0.5141185
6	0xbc9bf4ee	-0.01903769
7	0xbe32b8e4	-0.17453343
8	0x3ef09d9a	0.4699524
9	0x3dd9606d	0.10614095
10	0x3ead5048	0.33850312
11	0x3e9e82b4	0.30959094
12	0xbe2e4649	-0.17018999
13	0x3eb3af84	0.35094845
14	0xbe4181c8	-0.18897164
15	0xbd03557d	-0.03206395
16	0x3eb75c50	0.35812616
17	0x3f189a73	0.5961067
18	0xbe22d404	-0.1590119
19	0x3eaf09b9	0.34187105
20	0xbec27525	-0.3798
21	0x3efb03f6	0.4902646
22	0x3dce1ddc	0.10064289
23	0x3f1caf24	0.61204743
24	0xbe05fdc6	-0.13085088
25	0xbdc3ccf9	-0.0956058
26	0x3f4f6409	0.81012017
27	0x3e1cb08d	0.15301724
28	0x3eab1c3e	0.33419985
29	0xbe1d040d	-0.15333577
30	0xbf8490a1	-1.0356637
31	0xbf3b39d5	-0.7313512
32	0xbdfc678f	-0.1232444
33	0x3e9d60c0	0.30737877
34	0xbd2035e2	-0.039113887
35	0x3db72234	0.089420706
36	0xbde8143f	-0.11331987
37	0x3e51c362	0.20484689
38	0x3e83577b	0.2565268
39	0x3ea15203	0.31507882
40	0x3ed28401	0.41116336
41	0x3e472f11	0.19451548
42	0xbec30ebe	-0.38097185
43	0x3d249875	0.040184457
44	0xbddfb3dd	-0.10922978
45	0xbf47c95c	-0.78041625
46	0x3f00a672	0.50253975
47	0x3ec74f9d	0.38927928
48	0x3d0fdd35	0.03512307
49	0x3e6aaecd	0.22918244
50	0x3e143c1c	0.14476055
51	0x3e26e10c	0.16296786
52	0xbe87a81a	-0.2649544
53	0x3f5364cd	0.82575685
54	0x3ebbfffe	0.36718744
55	0x3e538faa	0.20660272
56	0x3ee292ea	0.44252712
57	0x3f49a2c9	0.78764015
58	0xbdae7073	-0.08517542
59	0xbc312e57	-0.010814271
60	0x3d6837fd	0.05669402
61	0xbf059573	-0.52181166
62	0xbe662db7	-0.22478376
63	0xbd81533d	-0.063147046
64	0x3ca246e9	0.019809203
65	0xb9b64c0f	-0.00034770413
66	0xbe7b8623	-0.24562888
67	0x3e82951f	0.25504395
68	0x3e7efc81	0.2490101
69	0xbe745738	-0.23861396
70	0x3e767801	0.24069215
71	0x3e34731f	0.1762204
72	0x3e128cd0	0.14311528
73	0xbe8f8802	-0.28033453
74	0xbe0df6d3	-0.13863687
75	0x3cb6c7a2	0.02231199
76	0xbeb6b6db	-0.35686383
77	0xbdbb5056	-0.09146182
78	0xbeed0a49	-0.4629691
79	0xbe8fecff	-0.281105
80	0x3ea01571	0.31266358
81	0xbdb1b08a	-0.0867625
82	0x3e6ebe26	0.23314723
83	0x3e803905	0.25043502
84	0xbc90d776	-0.017680865
85	0x3d9389d8	0.07204026
86	0xbea03550	-0.31290674
87	0xbe0022c7	-0.12513267
88	0x3ef50b84	0.47860348
89	0x3ee26636	0.44218606
90	0xbf4f2889	-0.80921227
91	0x3c415e65	0.011802291
92	0x3f02efe4	0.51147294
93	0xbf1a36fe	-0.6024016
94	0x3fe5b20d	1.7944962
95	0x3f4a1742	0.7894174
96	0x3da81724	0.08207539
97	0xbef7757d	-0.48331824
98	0x3e507bb7	0.20359693
99	0x3ebf1c5b	0.3732632
100	0xbf3af65e	-0.73032176
101	0x3e4ba350	0.19886518
102	0xbf11c82a	-0.5694605
103	0xbe44e8bd	-0.19229408
104	0xbe4b58fd	-0.19858165
105	0xbe8a2bee	-0.2698664
106	0xbe0a6fa3	-0.13519149
107	0xbd87c59b	-0.06629487
108	0xbe31c58f	-0.17360519
109	0xbcf16d4c	-0.029471062
110	0xbd9f7f09	-0.07787902
111	0xbed33e71	-0.41258577
112	0xbe379026	-0.17926082
113	0xbf36e593	-0.7144405
114	0x3e79da5b	0.24399702
115	0x3e878cac	0.26474512
116	0xbf27aab8	-0.6549487
117	0x3cf2f84a	0.02965941
118	0xbf105ece	-0.5639466
119	0xbef66a0b	-0.4812778
120	0x3ea9af6b	0.33141646
121	0xbf157ea8	-0.5839639
122	0x3dd11b06	0.102102324
123	0x3dbdb1a2	0.092623964
124	0x3d089264	0.033342734
125	0xbf05934d	-0.5217789
126	0xbe939e32	-0.2883163
127	0xbe71966a	-0.23592535
128	0xbb3e9ee0	-0.0029086396
129	0x3df08216	0.11743562
130	0xbe6e1804	-0.23251349
131	0x3e964df9	0.29356363
132	0x3d090b5a	0.03345809
133	0xbed2da42	-0.41182142
134	0x3f3d937d	0.74053174
135	0x3eb8bc85	0.3608133
136	0x3e399e55	0.18126805
137	0x3f63ffec	0.8906238
138	0xbf147100	-0.57984924
139	0xbea92b97	-0.3304107
140	0x3e9038d6	0.28168362
141	0xbe8d0afa	-0.27547437
142	0x3eefe44c	0.46853864
143	0x3eb22c26	0.34799308
144	0xbefbab45	-0.49154106
145	0xbeb7bde6	-0.3588707
146	0x3edacec8	0.42735887
147	0x3e8405b5	0.25785604
148	0xbee36077	-0.44409534
149	0x3f6c186b	0.9222476
150	0xbf04615d	-0.51711065
151	0xbee1653c	-0.44022548
152	0x3e7b3d6c	0.2453515
153	0x3eca3dd0	0.39500284
154	0xbcdf5544	-0.027262338
155	0x3e555bd3	0.2083581
156	0xbd397b70	-0.045283735
157	0xbf38cb20	-0.72184944
158	0x3ea7c70c	0.32769048
159	0x3f36403d	0.7119177
160	0xbc24d35e	-0.0100601595
161	0x3dfc67f7	0.12324517
162	0xbda6b289	-0.08139522
163	0x3d7a69db	0.061136108
164	0x3f0ad2c2	0.5422784
165	0xbf2b743b	-0.6697423
166	0x3ed87b82	0.4228173
167	0xbd652d23	-0.05595125
168	0xbe81a606	-0.25321978
169	0xbc081574	-0.008305896
170	0x3da40346	0.08008437
171	0xbc84f24f	-0.016228823
172	0xbf126558	-0.5718589
173	0x3eb14df3	0.34629783
174	0x3dffc702	0.124891296
175	0x3f0d3dc9	0.551724
176	0x3e625200	0.22101593
177	0xbe250ae2	-0.16117433
178	0xbdb90fab	-0.090361916
179	0x3e477a79	0.19480313
180	0x3d8b2897	0.06794851
181	0xbf1ddfd6	-0.6166967
182	0xbc02ec91	-0.007990972
183	0x3ef6dc46	0.4821493
184	0x3eebaf65	0.46032253
185	0x3eb702e5	0.35744396
186	0x3e5aceda	0.2136797
187	0x3e6a9547	0.22908507
188	0xbd55807a	-0.052124478
189	0xbd6f7d8d	-0.058469344
190	0x3e9e57b4	0.30926287
191	0x3e8ef18b	0.27918658
192	0x3ef94de6	0.48692244
193	0x3de2c928	0.11073524
194	0xbd986366	-0.07440834
195	0x3ef68a74	0.48152506
196	0xbe9047ba	-0.28179723
197	0x3e93d63a	0.2887438
198	0xbbdf26f2	-0.0068100626
199	0x3e65e001	0.22448732
200	0x3ef683f2	0.4814754
201	0xbed2c197	-0.41163322
202	0xbf0ffb6b	-0.5624301
203	0x3ebabd4e	0.36472553
204	0x3e2a4a55	0.16629918
205	0xbe8b8063	-0.2724639
206	0xbe6d5415	-0.23176606
207	0xbe9138d1	-0.2836366
208	0x3ed1a154	0.40943396
209	0xbd6de94c	-0.058083817
210	0x3e4f8b98	0.20268095
211	0xbc9b015a	-0.018921543
212	0xbe32bbc6	-0.17454442
213	0x3f07a846	0.5299114
214	0xbe04764b	-0.1293575
215	0xbea131a6	-0.3148319
216	0x3d12b81f	0.035820123
217	0xbf3ebbbb	-0.74505204
218	0x3eb6dd9e	0.35715955
219	0x3ed7db3f	0.4215946
220	0xbf7eb4bb	-0.9949452
221	0x3f0bb98d	0.54580003
222	0xbf1ed008	-0.6203618
223	0xbed199ba	-0.40937597
224	0x3eab181a	0.33416826
225	0x3c5b4ecc	0.013385486
226	0x3d02630d	0.031832743
227	0x3e2d81e8	0.16944087
228	0xbf571fd9	-0.8403297
229	0x3e6b2d3a	0.22966471
230	0xbe26d4b0	-0.16292071
231	0x3e1252f9	0.14289464
232	0x3ef3b410	0.47598314
233	0x3f437db4	0.7636368
234	0xbc8d0738	-0.017215356
235	0x3ea1db61	0.31612685
236	0xbec37ada	-0.38179666
237	0x3e320857	0.17385994
238	0x3ee8b255	0.45448557
239	0x3ecd464d	0.40092698
240	0x3e4f82fa	0.20264807
241	0x3e4fa40d	0.20277424
242	0x3e435517	0.19075428
243	0x3eaf2ae3	0.34212407
244	0xbfac377b	-1.3454431
245	0x3f52021e	0.8203448
246	0xbf205d29	-0.6264215
247	0xbe426012	-0.1898196
248	0x3f1ab02c	0.60425067
249	0xbda75d83	-0.08172133
250	0xbecebbfc	-0.40377796
251	0x3e42ff56	0.19042715
252	0xbef3be01	-0.476059
253	0xbef1d11b	-0.47229847
254	0xbe6fcda1	-0.23418285
255	0xbc3cc953	-0.011522609

bias_ih_l0_reverse f4 [32]
0	0xbe6d6ec1	-0.2318678
1	0x3eeaf932	0.45893246
2	0x3e6c3d30	0.23070216
3	0x3e99f9ab	0.30073294
4	0xbe7713d1	-0.24128653
5	0x3ef43806	0.47698992
6	0xbdba6cda	-0.09102793
7	0x3e372613	0.17885618
8	0xbd9439ec	-0.0723761
9	0x3e5b565b	0.21419661
10	0x3e1edf48	0.15514863
11	0x3e454733	0.19265442
12	0x3e456d44	0.19279963
13	0x3edce864	0.4314605
14	0x3db3ef96	0.08785932
15	0x3eb266f9	0.34844187
16	0x3ea0731f	0.3133783
17	0xbccdb8e2	-0.025112573
18	0x3e816f13	0.25280055
19	0xbd1ccf70	-0.038283765
20	0x3c8c2795	0.017108718
21	0xbc00a6dc	-0.007852282
22	0x3e96328b	0.29335436
23	0xbe357829	-0.17721619
24	0x3ead32fb	0.33827958
25	0x3f805f77	1.0029134
26	0xbbf90379	-0.007599291
27	0x3dfed80d	0.12443552
28	0x3eb7a83d	0.35870543
29	0x3ee2789b	0.4423264
30	0x3e9f9d3d	0.3117465
31	0x3f5a0cfe	0.85176075

bias_hh_l0_reverse f4 [32]
0	0x3e4d13f1	0.20027138
1	0x3ee0d558	0.43912768
2	0x3e917b1c	0.28414237
3	0x3f035406	0.51300085
4	0xbe0c96af	-0.13729356
5	0x3e60bf09	0.21947874
6	0xbc96a596	-0.018389504
7	0x3dcc8bc4	0.09987596
8	0x3ec32cc3	0.38120088
9	0x3ebebc04	0.3725282
10	0x3e0e4d15	0.13896592
11	0x3e6f5293	0.23371343
12	0x3d0e4773	0.034736108
13	0x3e3bc111	0.18335368
14	0x3ec2a4c2	0.38016325
15	0xbd182c92	-0.03715188
16	0x3eb021b8	0.34400725
17	0xbe2211f7	-0.15827166
18	0xbea12121	-0.31470588
19	0x3e946f13	0.28990993
20	0xbdbbcfef	-0.091705196
21	0xbe6899d1	-0.22714926
22	0xbcd7f84a	-0.02636351
23	0x3ea9fc1a	0.3320015
24	0x3eb2deec	0.349357
25	0x3f46b478	0.77619123
26	0x3f01a0f5	0.50636226
27	0x3e94b8f3	0.29047355
28	0x3ed88f3a	0.42296773
29	0x3eba043a	0.3633135
30	0x3f0b6c04	0.54461694
31	0x3f3a480c	0.72766185

weight f4 [1, 16]
0	0x371aa301	9.217068e-06
1	0x3ef2f18e	0.47449917
2	0xbec2bb9b	-0.38033757
3	0x3ed1167e	0.40837473
4	0xbedaa13b	-0.42701134
5	0x3adfe08e	0.0017080472
6	0xbf03a070	-0.51416683
7	0xba3bce24	-0.0007164201
8	0x3fc1a9c2	1.5129931
9	0x3fba8a00	1.4573364
10	0xbfb091db	-1.3794512
11	0x3ff1d5cf	1.8893374
12	0x3f5bf334	0.85917974
13	0x3f4adcc8	0.79243135
14	0x3fe13fe1	1.7597619
15	0x3f9b4173	1.2129349
