cours/TP/tp2/checkpoints/eureka-3.0.pt (torch, 5878 bytes, 7 tensors)

weight f4 [8, 8]
0	0xbc11dc4e	-0.008902622
1	0x3e4aab85	0.19791992
2	0x3d583ec1	0.05279422
3	0x3d573247	0.052538183
4	0x3d727807	0.0591965
5	0x3ca00b1a	0.019536544
6	0x3d45db46	0.04830482
7	0x3c984572	0.018587802
8	0x3c2482c9	0.010040947
9	0xbdb693be	-0.08914898
10	0xbdd48d69	-0.10378534
11	0xbdbe8135	-0.09301988
12	0xbb60f53e	-0.0034325863
13	0x3d15e019	0.03659067
14	0xbd9c1874	-0.076218516
15	0xbccf2a7a	-0.02528881
16	0x3d0eca93	0.03486116
17	0x3e833440	0.256258
18	0x3e362d66	0.17790756
19	0x3e12aa4c	0.14322776
20	0x3d8efe6a	0.069821194
21	0xbd3eed8c	-0.04661326
22	0x3d56303e	0.0522921
23	0xbd70a465	-0.05875053
24	0x3d046dde	0.03233134
25	0xbe08a128	-0.13342726
26	0xbd430734	-0.04761429
27	0xbd652357	-0.055941906
28	0xbbe905a5	-0.0071112686
29	0x3d9f9e5c	0.077938765
30	0xbdcbfb7a	-0.09960075
31	0x3d00a818	0.031410307
32	0xbd46bfaa	-0.04852263
33	0x3dfefa5c	0.12450096
34	0x3d050114	0.03247173
35	0x3d9dc4b7	0.07703536
36	0xbd2ed9b0	-0.04268807
37	0xbe0b8c9a	-0.13627854
38	0x3d69c0ac	0.05706851
39	0xbc66362e	-0.014051003
40	0xbc861355	-0.01636664
41	0xbdc36e36	-0.095425054
42	0xbdbad903	-0.09123423
43	0xbd9fe119	-0.07806606
44	0x3ad5bfa1	0.001630772
45	0x3c70b96b	0.014692645
46	0xbd795b5d	-0.060878146
47	0xbb387506	-0.0028145923
48	0x3aa8a319	0.001286599
49	0x3bb05408	0.005381111
50	0x3cbb64d6	0.02287523
51	0xbb909467	-0.004412222
52	0x3bb9ba57	0.0056679654
53	0x3bc1a381	0.0059093838
54	0x3c5e834d	0.013581109
55	0xbbeba18c	-0.0071908887
56	0x3d43a265	0.047762293
57	0xbe2df26a	-0.16987005
58	0xbe019ab8	-0.12656677
59	0xbde85239	-0.11343808
60	0xbd5adff4	-0.053436235
61	0x3e16615a	0.14685574
62	0xbe330f4b	-0.17486303
63	0x3c0eb473	0.008710015

bias f4 [8]
0	0xbb7e44e7	-0.0038798393
1	0xbc3c641c	-0.011498477
2	0x3a891422	0.001045827
3	0x3c0e512a	0.008686343
4	0x3c5bee55	0.013423522
5	0xbc31ce84	-0.01085246
6	0x3c2b19a2	0.010443123
7	0x3bb6ec7b	0.00558239

weight f4 [8]
0	0x3d8506c0	0.06495428
1	0xbd179d33	-0.03701515
2	0x3ee60195	0.44923082
3	0x3d0519df	0.032495376
4	0x3e1219b1	0.14267613
5	0xbc2d5aa2	-0.010580691
6	0xbd49f0de	-0.049301974
7	0x3e8611b4	0.2618538

bias f4 [8]
0	0x3de03ccb	0.10949095
1	0xbc926e3b	-0.017874828
2	0x3edd134c	0.43178785
3	0x3d833f49	0.06408555
4	0x3e0c5f3e	0.13708207
5	0x3cc0ac33	0.023519611
6	0xbc1d4980	-0.009600043
7	0x3e6bd1da	0.23029271

running_mean f4 [8]
0	0x3d0c2617	0.034216013
1	0x3d7a52e6	0.061114214
2	0x3c9d759d	0.019221121
3	0xbd861a99	-0.06548042
4	0xbd812d32	-0.063074484
5	0x3d790579	0.060796235
6	0xbd88e6a5	-0.06684617
7	0xbd6fd3ed	-0.058551718

running_var f4 [8]
0	0x3e332250	0.17493558
1	0x3e0bc4c8	0.13649285
2	0x3e710c49	0.23539843
3	0x3e06fa99	0.13181533
4	0x3e28be19	0.16478767
5	0x3e0c98cc	0.13730162
6	0x3de5446c	0.11194691
7	0x3e5fa4a2	0.21840146

weight f4 [1, 8]
0	0x3e7a0df4	0.24419385
1	0xbe37b25a	-0.1793913
2	0x3f3daeec	0.74095035
3	0xbe4c1841	-0.19931127
4	0x3eef0ecd	0.4669098
5	0xbddfe2aa	-0.109319046
6	0x3d1b9533	0.037984084
7	0xbef5db52	-0.4801889
