cours/TP/tp2/checkpoints/eureka-2.0.pt (torch, 6006 bytes, 7 tensors)

weight f4 [12, 8]
00000000: 8e15 a7be 1bc0 6fbd 2ce5 bebc 3a89 fe3b
00000010: 7f03 0bbe 22e3 bc3c 3cf2 08be 9537 333e
00000020: f1fc 603e 6048 f03d ff9c 0f3c e739 793b
00000030: a3db f33c 0fb2 26bd 82f6 5b3d 85b9 a5bb
00000040: b568 45be 8458 6fbe 38b6 06be a3c1 f5bd
00000050: 226a 47bb 8ae5 e23d e6b8 27be e946 293d
00000060: 5738 1d3e e48e e83d 69a0 803d 1855 133e
00000070: b0fd 4d3c f9bb e5bd e773 233e 2b77 d239
00000080: c517 653e bb65 233e 0d56 7a3d 3c7c a33d
00000090: c9df ea3d 7911 dfbb a8c6 ff3d 340c 94bd
000000a0: a4ec 8e3e 8e15 c03d d729 273e 9e03 8d3d
000000b0: cdfc 5b3d ee2f 86bc 0c06 003e 4553 ecbd
000000c0: 0a81 a7be 2e91 0dbe a6c1 89bd 66b5 05be
000000d0: 7de7 87bd 25a8 e73a 617f 1cbe f53a f03c
000000e0: c9ff 2b3e c807 813d 164c 6d3d 1dba 0e3e
000000f0: 0342 6d3d d92f 31bd 3bb8 d23d 9364 6fbd
00000100: 98de 643e 7e80 983d 96e3 873d bd91 0d3e
00000110: 9b2a 8c3d bad6 6fbd 8977 b73d 921f 4fbe
00000120: b9fe dcbe 3cae 63be cd36 3b3d 5c38 293c
00000130: 51e3 5abe 6ace bf3d a43e 5bbe 4fda 1a3e
00000140: 0803 1d3e dedf b63d 3844 ac3d bc08 ca3d
00000150: d766 d33c 1bcf 38be c324 823d c2e9 9dbd
00000160: 56a6 573e 8a7d 563e ca9b d3bc 199c dc3d
00000170: 0212 a23d a1b4 67bd f9f9 c13c bbd0 f2bd
-0.32633632 -0.058532815 -0.023302637 0.0077678235 -0.13575552 0.023057524 -0.13373655 0.17501672
0.2197149 0.117325544 0.008765458 0.0038028897 0.029767817 -0.040697154 0.053701885 -0.005057516
-0.19278224 -0.2337361 -0.13155448 -0.11999824 -0.003042825 0.11078937 -0.16379127 0.04132739
0.15353523 0.11355379 0.06280596 0.1438793 0.012572691 -0.112174936 0.15962182 0.00040143108
0.22372349 0.15956776 0.06111722 0.0798268 0.11468465 -0.006807503 0.124890625 -0.0722889
0.27914917 0.09379111 0.16324554 0.068854555 0.053707886 -0.016380277 0.12502307 -0.1153932
-0.32715636 -0.13824913 -0.06726389 -0.1305748 -0.0663595 0.0017674012 -0.15282966 0.029324988
0.16796793 0.06300312 0.05793389 0.13938184 0.05792428 -0.04325852 0.102890454 -0.058445524
0.22350538 0.07446383 0.066352054 0.13825126 0.06844064 -0.05855439 0.089583464 -0.20226887
-0.43163088 -0.22234434 0.04570656 0.0103283785 -0.21375777 0.09365542 -0.21410614 0.1512234
0.15333188 0.08929418 0.08411449 0.09864947 0.025805874 -0.18047754 0.06354668 -0.077106014
0.21059546 0.20946327 -0.025831122 0.10771961 0.07913591 -0.056568746 0.023678767 -0.118562184

bias f4 [12]
00000000: 5e37 01b7 0809 98b3 4c92 2736 664e e5b6
00000010: 8d68 75b6 a5c1 0e37 6e04 c6b6 13db 0c36
00000020: 84b4 5935 cd09 28b7 cf33 a636 c162 02b7
-7.70189e-06 -7.079694e-08 2.4970095e-06 -6.8338586e-06 -3.6568701e-06 8.508946e-06 -5.9013755e-06 2.0989144e-06
8.1101484e-07 -1.0015862e-05 4.953217e-06 -7.771597e-06

weight f4 [12]
00000000: ae4a 023f cb14 b43e 1320 013f 0a52 e13e
00000010: 2f1a ad3e 77ad cc3e cc43 0e3f 7a2f af3e
00000020: 6bd7 dd3e c794 e33e bc40 d83e ef61 be3e
0.508952 0.35172114 0.50439566 0.44007903 0.3380904 0.39976093 0.555722 0.3421591
0.43328413 0.44449446 0.42236888 0.37184092

bias f4 [12]
00000000: 2626 683e d2cd 803e 8cf4 713e 39ce 963e
00000010: b4dc 973e d673 a43e b023 713e 2d37 843e
00000020: 8a37 b03e 5102 473e a24e 863e 7664 a73e
0.22670802 0.25157028 0.23628443 0.2945421 0.2966057 0.32119626 0.2354877 0.25823346
0.34417373 0.19434477 0.26231867 0.32693833

running_mean f4 [12]
00000000: 8651 9abc 53d9 ed3b ee70 81bb 00f8 dab8
00000010: ea76 593c 4a72 273c a205 10bc 1c09 213b
00000020: cc5c c83b c0b7 15bd e8e4 bdba 2f87 153c
-0.018837702 0.007258573 -0.00395023 -0.00010441244 0.01327298 0.01022012 -0.0087904055 0.002457208
0.006114578 -0.03655219 -0.0014487775 0.009126469

running_var f4 [12]
00000000: 8fbb 3b3e b961 d93d 5751 073e 4c7a ee3d
00000010: b204 e93d c30e 023e 87d1 6b3e 7a39 ce3d
00000020: 60a9 033e 338a d33e 8de9 bb3d ab31 b13d
0.18333267 0.10614342 0.13214622 0.1164442 0.11377849 0.12700944 0.23029147 0.100695565
0.1285758 0.41316375 0.09175406 0.086520515

weight f4 [1, 12]
00000000: a7f9 0cbf bcee da3e f475 0dbf 72eb 033f
00000010: a678 de3e a648 ff3e 1fd4 17bf f8e1 d33e
00000020: c7c2 0a3f 8eac edbe 3ac3 fc3e 00b5 f53e
-0.5506844 0.42760265 -0.5525811 0.51531136 0.43451422 0.49860114 -0.59308046 0.41383338
0.54203457 -0.4642071 0.49367696 0.47989655
