cours/TP/tp2/checkpoints/eureka-1.0.pt (torch, 6518 bytes, 7 tensors)

weight f4 [16, 8]
000000 52 9d 1a 3e b2 9b 9c 3d 7d 77 5c 3d 6c 60 55 3d
       0.15099075 0.07646884 0.05382489 0.05209391
000010 43 e7 42 bb 12 c0 b1 bd 74 ec 84 3d ca 7d d3 bc
       -0.0029739894 -0.08679213 0.06490412 -0.025816817
000020 18 97 86 be 83 c4 32 be 0f 9c 58 bd 88 7e 72 bd
       -0.2628715 -0.17457776 -0.052883204 -0.0592027
000030 07 93 b8 bd 6e 31 a0 3d 58 e9 03 be 1c d6 08 3e
       -0.09012418 0.07821928 -0.12881982 0.13362926
000040 72 12 b6 3d 14 0c 25 3d 54 ed 88 3c 7c 8c 51 3d
       0.08890237 0.04029472 0.01671473 0.051159367
000050 ac 5c 6c 3d 40 97 54 bc d2 b7 14 3d a5 a8 89 bc
       0.057705566 -0.012975514 0.036308117 -0.016804049
000060 25 69 66 3e 01 62 06 3e b1 07 6b bb 2e 34 0d 3d
       0.22501047 0.13123323 -0.0035862739 0.03447359
000070 10 66 a5 3d 20 55 c6 bc af 70 93 3d fd 19 cb bd
       0.080761075 -0.024210513 0.07199227 -0.09917066
000080 a2 07 4e 3e 2d 9b e9 3d a6 46 b6 3d b4 82 9d 3c
       0.20120099 0.114065506 0.08900194 0.019227363
000090 36 88 b3 3d 57 09 4d bd fa 5f e9 3d 4a ae 17 bd
       0.087662145 -0.050057735 0.11395259 -0.03703145
0000a0 8e fc 7d 3e 2a 67 99 3d 68 16 61 3d 5f 79 b6 3d
       0.24803373 0.0749038 0.05495301 0.089098684
0000b0 16 5f 2d 3d 3d 71 84 bd c1 d4 b9 3d 32 bd 6b bd
       0.04232701 -0.06466911 0.09073783 -0.057553478
0000c0 07 2a 6b 3e 3e 32 27 3e e6 f5 34 3d 96 00 e9 3c
       0.22965251 0.1632776 0.04417982 0.028442662
0000d0 1d c1 13 3d 4c ad d3 bd 22 e2 b1 3d 6b ad 8f bd
       0.03607284 -0.10335788 0.086857095 -0.07015499
0000e0 ee 66 3d 3e 28 5e 36 3e d8 6c 20 bc e4 d7 ac 3d
       0.18496296 0.17809355 -0.009791575 0.08439615
0000f0 c0 72 49 3d ea ad a0 bd 51 a0 79 3d 37 b4 a7 bd
       0.0491817 -0.078456715 0.060943905 -0.0818867
000100 67 58 19 3e 63 41 3c 3d bc 18 aa 3c 96 26 62 3c
       0.14975129 0.045960795 0.020763747 0.013803145
000110 56 41 b8 3d 02 2e 6a bd 94 b6 bb 3d 21 41 27 bd
       0.08996837 -0.057172783 0.091656834 -0.040833596
000120 0c 06 2c be fa b4 f8 bd 80 d2 36 bd f5 97 97 bc
       -0.16799182 -0.121438935 -0.044634342 -0.018505076
000130 24 8f 82 bd c1 69 95 3d 02 4e bb bd c1 bb 93 3d
       -0.06374958 0.072955616 -0.09145738 0.072135456
000140 4e ab 58 be cf e5 e8 bd b7 0e 57 bd 12 98 95 bd
       -0.21159098 -0.113719575 -0.052504268 -0.07304396
000150 dd e5 95 bd 70 74 ba 3d 01 e4 be bd 99 23 04 3d
       -0.073192336 0.0910424 -0.09320832 0.03226051
000160 13 6b 4a 3e f2 88 3e 3d b2 e1 32 3d 97 bf 39 3d
       0.19767408 0.04651732 0.04367227 0.04534873
000170 ad dc 09 3d be a8 91 bd f0 2b ad 3d 81 29 f3 bc
       0.03365772 -0.07112263 0.08455646 -0.029682877
000180 87 67 e4 bd 20 a5 12 bd 16 b9 ce 3c a3 53 84 bb
       -0.11152559 -0.035802007 0.02523474 -0.0040382906
000190 e6 0a 35 bd 92 14 87 3d 9f 34 34 bd 28 38 45 3d
       -0.044199847 0.0659572 -0.043995496 0.048149258
0001a0 52 c6 4a be bf e8 ed bd d7 7f 4d be 36 10 8a bc
       -0.19802216 -0.116166584 -0.20068298 -0.016853433
0001b0 6a b0 4d be d1 99 39 3b 2e 0c 06 be 95 4f b2 3d
       -0.20086828 0.0028320441 -0.13090584 0.08706585
0001c0 51 03 17 3e c2 34 30 3e 50 2f 5f 3d a7 47 10 3d
       0.14747359 0.17207626 0.05448848 0.035224583
0001d0 ff 14 00 3e 86 66 90 bd d2 49 37 3d 94 85 3a bd
       0.1250801 -0.07050805 0.044748135 -0.045537546
0001e0 d1 04 cb 3d d6 17 82 3d d5 39 a8 3c ec 5b b7 3c
       0.09913028 0.063522026 0.020535389 0.022382699
0001f0 7f cc 25 3d 5b 64 c8 bc f0 70 4d 3d 88 dc 76 bc
       0.040478226 -0.024461916 0.050156534 -0.015067227

bias f4 [16]
000000 51 a4 cd b9 cd a2 ac 39 ee dc 98 37 08 5b 8c 36
       -0.00039223072 0.00032927693 1.822269e-05 4.1829226e-06
000010 b5 2c 42 b9 87 1f 86 b9 86 8c 61 39 05 61 f5 39
       -0.00018517936 -0.0002558196 0.00021510021 0.00046802327
000020 be c3 22 b7 a5 4d 82 b9 68 ef a9 39 0a c5 c2 39
       -9.701527e-06 -0.00024853382 0.00032412563 0.0003714937
000030 cf 2a 45 39 22 47 a2 b8 d6 3f e3 b8 30 f2 7b 39
       0.00018803331 -7.7380115e-05 -0.00010836094 0.00024027447

weight f4 [16]
000000 24 90 a7 3e 1c 62 0b 3f de 68 3b 3e 21 67 d1 3e
       0.32727158 0.5444658 0.18301722 0.40898994
000010 60 2b fe 3e cc db c5 3e cf c8 d2 3e ab e0 a4 3e
       0.49642467 0.38644254 0.4116883 0.32202658
000020 11 16 9e 3e e2 74 fc 3e 44 fd 08 3f 0c 71 a5 3e
       0.3087621 0.49307925 0.5351145 0.3231281
000030 f4 0c 9c 3e 1f 6b 09 3f 92 7e c7 3e 1c 24 50 3e
       0.30478632 0.5367908 0.38963753 0.20326275

bias f4 [16]
000000 94 4d 53 3e 89 79 e0 3d aa 4a f9 3d 55 bc 6f 3e
       0.20635062 0.10960681 0.12172444 0.23411687
000010 1f e0 a8 3e 42 5b 89 3e bd 83 aa 3e 13 20 65 3e
       0.3298349 0.26827437 0.33303633 0.22375517
000020 9b 2d 56 3e 84 1e 72 3e 4f 80 3e 3e bd 4e 7e 3e
       0.20915835 0.23644453 0.18603633 0.24834724
000030 fe eb 12 3e 6d 4e 26 3e 16 8d 8b 3e 99 fe 15 3e
       0.14347836 0.16240855 0.27256078 0.14647903

running_mean f4 [16]
000000 b5 09 ae 3b d8 34 00 3b b0 e8 10 3b 7c 83 a0 3b
       0.0053112158 0.0019562747 0.0022111349 0.0048984867
000010 03 5d 7c bb a5 77 0a 3c c2 9f 0c 3c a1 83 4f 3c
       -0.0038507588 0.008451377 0.008583011 0.01266566
000020 06 8e 8f bb 88 09 85 3a 54 f8 88 bb 86 84 4a 3b
       -0.004380944 0.0010149935 -0.0041799936 0.0030901744
000030 c6 ee 57 bb f8 20 80 3c 84 3c 87 3b 3a 41 80 3a
       -0.0032948717 0.01564072 0.004127087 0.0009785064

running_var f4 [16]
000000 42 58 a1 3d de 60 3d 3e 9c 90 77 3c 12 2b c5 3d
       0.07878162 0.18493983 0.015110161 0.09627356
000010 07 2e d8 3d bd 1b 1f 3e db 9d f3 3d 6f a8 99 3d
       0.10555654 0.15537925 0.11895343 0.07502829
000020 a6 d9 70 3d 1c fd c6 3d ae 43 f5 3d a4 16 ad 3d
       0.058801316 0.097162455 0.119757995 0.08451584
000030 ad ed ae 3c 91 f8 06 3e a9 f4 8d 3d 7b 49 b4 3c
       0.021353567 0.13180758 0.06931431 0.022007694

weight f4 [1, 16]
000000 40 4b c0 3e 9d 65 08 bf 7d 94 5d 3e c9 61 ee 3e
       0.3755741 -0.5328005 0.21638675 0.4655898
000010 e3 62 17 3f ba a7 ed 3e f3 72 05 3f 60 eb c8 3e
       0.59135264 0.46417028 0.52128524 0.39242077
000020 42 4b bc 3e 55 8e 0a bf 63 48 0e bf f2 e1 cb 3e
       0.36776167 -0.5412343 -0.55579203 0.3982082
000030 a8 67 ac be 07 30 0f bf 34 ee f0 3e e0 8a 7a 3e
       -0.33672833 -0.5593266 0.47056735 0.24467039
