cours/TP/tp2/checkpoints/eureka-1.5.pt (torch, 5878 bytes, 7 tensors)

weight f4 [8, 8]
00000000: d68a 1a3e 6783 e13d 4686 4a3c 9190 873d
00000010: 41c8 bf3d 2015 95bd 93f6 553d 7535 d0bd
00000020: 7ab7 4e3e bb0b 9d3d 47cb 923d b4be 833d
00000030: ee20 3b3d 3418 c1bd 0a4a e63d b550 98bd
00000040: 9e04 24be 9e36 cebd b556 92bd 1d5c 16bd
00000050: ebdb 88bd aa4d 2e3d b2d8 f5bd 3625 ff3b
00000060: 93d9 9cbd 4b1b 83bd 8adf 4cba e9cc 323b
00000070: 71fb a5bc b230 9b3d 4bf0 36bd 5083 e43c
00000080: f527 0a3e 76e0 c83d 4dce e83c 6ee6 033e
00000090: 78b6 973d af78 7abd 0e2b 193e d0e8 f6bd
000000a0: 3980 493c 3a66 243c 872d 3dbb c7e3 acba
000000b0: c9dc 303b f8a3 acbb 258b b33b ffaf 2abc
000000c0: 93d1 d73d fca7 853d 5bf9 0f3a 2f4b 833d
000000d0: 079e 0d3d 33cf 86bd 6c9c bd3d e26e 2ebd
000000e0: 29b9 29be 0600 c5bd 50e8 b3bc c5da 053d
000000f0: 9415 6ebd 66d9 633d a912 ddbd 93ba d23d
0.15092024 0.11011391 0.012361115 0.06619371 0.09364367 -0.0727942 0.052237105 -0.10166446
0.20187178 0.07668253 0.07167678 0.06432858 0.0456857 -0.094284445 0.112445906 -0.07437269
-0.16017386 -0.10069011 -0.07145444 -0.03670894 -0.06682571 0.042554535 -0.12004222 0.0077864183
-0.076586865 -0.0640169 -0.00078152923 0.002728278 -0.020261498 0.07577647 -0.044662755 0.027894646
0.13491805 0.098084375 0.028418684 0.1288087 0.0740785 -0.06115025 0.1495783 -0.12056124
0.012298637 0.010034138 -0.0028866248 -0.0013190442 0.0026987067 -0.00526857 0.005479234 -0.010417937
0.1053802 0.06526181 0.0005492174 0.064108245 0.034574535 -0.06582489 0.09258351 -0.042586215
-0.16574539 -0.09619145 -0.021961361 0.032679338 -0.058126047 0.05562725 -0.10794575 0.102894925

bias f4 [8]
00000000: b6d1 903a 73b2 18ba 4d1c dbb9 ad8f f2b7
00000010: b2f2 0fba f322 48ba af29 e9b9 babf 7cba
0.0011048827 -0.0005824931 -0.0004179202 -2.8915552e-05 -0.00054911815 -0.00076346024 -0.0004447228 -0.00096416066

weight f4 [8]
00000000: b907 b53e e3b7 d93e 6e82 ce3e 6471 933e
00000010: 8754 b93e 8c27 2a3d 05af ba3e f0cd 013f
0.35357454 0.42523107 0.40333885 0.28797448 0.36197302 0.04154162 0.36461654 0.5070486

bias f4 [8]
00000000: 4c1b 3b3e 50a5 653e 0c0f 4e3e d4be 193e
00000010: ed44 583e af19 f13c bcc8 743e de02 4a3e
0.18272132 0.22426343 0.20122927 0.15014201 0.21120043 0.029431192 0.23904699 0.19727656

running_mean f4 [8]
00000000: aca5 ff3a f012 783a 0e32 37bb e07e 9d39
00000010: 4472 acbb 6759 1ebb 06ab 93ba b460 76bb
0.001950433 0.0009463271 -0.002795342 0.00030039903 -0.005262645 -0.0024162175 -0.0011266179 -0.003759426

running_var f4 [8]
00000000: 82b5 8d3d 8bf5 c13d 06ae a13d 7795 8f3c
00000010: bc42 a73d 5ef0 503a c16d 3e3d 147a a93d
0.069193855 0.09470662 0.078945205 0.017527325 0.081670254 0.0007970388 0.04649139 0.08275238

weight f4 [1, 8]
00000000: 49d7 cc3e bcce f53e 0eae e5be 8ce1 a5be
00000010: a975 d63e fb38 543d 56db de3e f4fe 09bf
0.40008 0.48009288 -0.44859356 -0.3239864 0.41886643 0.051812153 0.43526715 -0.5390465
